{"format": "graph-model", "generatedBy": "2.4.1", "convertedBy": "TensorFlow.js Converter v2.8.0", "signature": {"inputs": {"input_tensor:0": {"name": "input_tensor:0", "dtype": "DT_UINT8", "tensorShape": {"dim": [{"size": "1"}, {"size": "-1"}, {"size": "-1"}, {"size": "3"}]}}}, "outputs": {"Identity_4:0": {"name": "Identity_4:0", "dtype": "DT_FLOAT", "tensorShape": {"dim": [{"size": "1"}, {"size": "100"}]}}, "Identity_5:0": {"name": "Identity_5:0", "dtype": "DT_FLOAT", "tensorShape": {"dim": [{"size": "1"}]}}, "Identity_1:0": {"name": "Identity_1:0", "dtype": "DT_FLOAT", "tensorShape": {"dim": [{"size": "1"}, {"size": "100"}, {"size": "4"}]}}, "Identity_2:0": {"name": "Identity_2:0", "dtype": "DT_FLOAT", "tensorShape": {"dim": [{"size": "1"}, {"size": "100"}]}}, "Identity_7:0": {"name": "Identity_7:0", "dtype": "DT_FLOAT", "tensorShape": {"dim": [{"size": "1"}, {"size": "49104"}, {"size": "12"}]}}, "Identity_3:0": {"name": "Identity_3:0", "dtype": "DT_FLOAT", "tensorShape": {"dim": [{"size": "1"}, {"size": "100"}, {"size": "12"}]}}, "Identity_6:0": {"name": "Identity_6:0", "dtype": "DT_FLOAT", "tensorShape": {"dim": [{"size": "1"}, {"size": "49104"}, {"size": "4"}]}}, "Identity:0": {"name": "Identity:0", "dtype": "DT_FLOAT", "tensorShape": {"dim": [{"size": "1"}, {"size": "100"}]}}}}, "modelTopology": {"node": [{"name": "input_tensor", "op": "Placeholder", "attr": {"shape": {"shape": {"dim": [{"size": "1"}, {"size": "-1"}, {"size": "-1"}, {"size": "3"}]}}, "dtype": {"type": "DT_UINT8"}}}, {"name": "StatefulPartitionedCall/EfficientDet-D0/model/stem_conv2d/Conv2D_weights", "op": "Const", "attr": {"value": {"tensor": {"dtype": "DT_FLOAT", "tensorShape": {"dim": [{"size": "3"}, {"size": "3"}, {"size": "3"}, {"size": "32"}]}}}, "dtype": {"type": "DT_FLOAT"}}}, {"name": "StatefulPartitionedCall/EfficientDet-D0/model/stem_conv2d/Conv2D_bn_offset", "op": "Const", "attr": {"value": {"tensor": {"dtype": "DT_FLOAT", "tensorShape": {"dim": [{"size": "32"}]}}}, "dtype": {"type": "DT_FLOAT"}}}, {"name": "StatefulPartitionedCall/EfficientDet-D0/model/stack_0/block_0/depthwise_conv2d/depthwise_weights", "op": "Const", "attr": {"value": {"tensor": {"dtype": "DT_FLOAT", "tensorShape": {"dim": [{"size": "3"}, {"size": "3"}, {"size": "32"}, {"size": "1"}]}}}, "dtype": {"type": "DT_FLOAT"}}}, {"name": "StatefulPartitionedCall/EfficientDet-D0/model/stack_0/block_0/depthwise_conv2d/depthwise_bn_offset", "op": "Const", "attr": {"dtype": {"type": "DT_FLOAT"}, "value": {"tensor": {"dtype": "DT_FLOAT", "tensorShape": {"dim": [{"size": "32"}]}}}}}, {"name": "StatefulPartitionedCall/EfficientDet-D0/model/stack_0/block_0/project_conv2d/Conv2D_weights", "op": "Const", "attr": {"value": {"tensor": {"dtype": "DT_FLOAT", "tensorShape": {"dim": [{"size": "1"}, {"size": "1"}, {"size": "32"}, {"size": "16"}]}}}, "dtype": {"type": "DT_FLOAT"}}}, {"name": "StatefulPartitionedCall/EfficientDet-D0/model/stack_0/block_0/project_conv2d/Conv2D_bn_offset", "op": "Const", "attr": {"value": {"tensor": {"dtype": "DT_FLOAT", "tensorShape": {"dim": [{"size": "16"}]}}}, "dtype": {"type": "DT_FLOAT"}}}, {"name": "StatefulPartitionedCall/EfficientDet-D0/model/stack_1/block_0/expand_conv2d/Conv2D_weights", "op": "Const", "attr": {"value": {"tensor": {"dtype": "DT_FLOAT", "tensorShape": {"dim": [{"size": "1"}, {"size": "1"}, {"size": "16"}, {"size": "96"}]}}}, "dtype": {"type": "DT_FLOAT"}}}, {"name": "StatefulPartitionedCall/EfficientDet-D0/model/stack_1/block_0/expand_conv2d/Conv2D_bn_offset", "op": "Const", "attr": {"value": {"tensor": {"dtype": "DT_FLOAT", "tensorShape": {"dim": [{"size": "96"}]}}}, "dtype": {"type": "DT_FLOAT"}}}, {"name": "StatefulPartitionedCall/EfficientDet-D0/model/stack_1/block_0/depthwise_conv2d/depthwise_weights", "op": "Const", "attr": {"dtype": {"type": "DT_FLOAT"}, "value": {"tensor": {"dtype": "DT_FLOAT", "tensorShape": {"dim": [{"size": "3"}, {"size": "3"}, {"size": "96"}, {"size": "1"}]}}}}}, {"name": "StatefulPartitionedCall/EfficientDet-D0/model/stack_1/block_0/depthwise_conv2d/depthwise_bn_offset", "op": "Const", "attr": {"value": {"tensor": {"dtype": "DT_FLOAT", "tensorShape": {"dim": [{"size": "96"}]}}}, "dtype": {"type": "DT_FLOAT"}}}, {"name": "StatefulPartitionedCall/EfficientDet-D0/model/stack_1/block_0/project_conv2d/Conv2D_weights", "op": "Const", "attr": {"value": {"tensor": {"dtype": "DT_FLOAT", "tensorShape": {"dim": [{"size": "1"}, {"size": "1"}, {"size": "96"}, {"size": "24"}]}}}, "dtype": {"type": "DT_FLOAT"}}}, {"name": "StatefulPartitionedCall/EfficientDet-D0/model/stack_1/block_0/project_conv2d/Conv2D_bn_offset", "op": "Const", "attr": {"dtype": {"type": "DT_FLOAT"}, "value": {"tensor": {"dtype": "DT_FLOAT", "tensorShape": {"dim": [{"size": "24"}]}}}}}, {"name": "StatefulPartitionedCall/EfficientDet-D0/model/stack_1/block_1/expand_conv2d/Conv2D_weights", "op": "Const", "attr": {"dtype": {"type": "DT_FLOAT"}, "value": {"tensor": {"dtype": "DT_FLOAT", "tensorShape": {"dim": [{"size": "1"}, {"size": "1"}, {"size": "24"}, {"size": "144"}]}}}}}, {"name": "StatefulPartitionedCall/EfficientDet-D0/model/stack_1/block_1/expand_conv2d/Conv2D_bn_offset", "op": "Const", "attr": {"value": {"tensor": {"dtype": "DT_FLOAT", "tensorShape": {"dim": [{"size": "144"}]}}}, "dtype": {"type": "DT_FLOAT"}}}, {"name": "StatefulPartitionedCall/EfficientDet-D0/model/stack_1/block_1/depthwise_conv2d/depthwise_weights", "op": "Const", "attr": {"value": {"tensor": {"dtype": "DT_FLOAT", "tensorShape": {"dim": [{"size": "3"}, {"size": "3"}, {"size": "144"}, {"size": "1"}]}}}, "dtype": {"type": "DT_FLOAT"}}}, {"name": "StatefulPartitionedCall/EfficientDet-D0/model/stack_1/block_1/depthwise_conv2d/depthwise_bn_offset", "op": "Const", "attr": {"value": {"tensor": {"dtype": "DT_FLOAT", "tensorShape": {"dim": [{"size": "144"}]}}}, "dtype": {"type": "DT_FLOAT"}}}, {"name": "StatefulPartitionedCall/EfficientDet-D0/model/stack_1/block_1/project_conv2d/Conv2D_weights", "op": "Const", "attr": {"value": {"tensor": {"dtype": "DT_FLOAT", "tensorShape": {"dim": [{"size": "1"}, {"size": "1"}, {"size": "144"}, {"size": "24"}]}}}, "dtype": {"type": "DT_FLOAT"}}}, {"name": "StatefulPartitionedCall/EfficientDet-D0/model/stack_1/block_1/project_conv2d/Conv2D_bn_offset", "op": "Const", "attr": {"dtype": {"type": "DT_FLOAT"}, "value": {"tensor": {"dtype": "DT_FLOAT", "tensorShape": {"dim": [{"size": "24"}]}}}}}, {"name": "StatefulPartitionedCall/EfficientDet-D0/model/stack_2/block_0/expand_conv2d/Conv2D_weights", "op": "Const", "attr": {"value": {"tensor": {"dtype": "DT_FLOAT", "tensorShape": {"dim": [{"size": "1"}, {"size": "1"}, {"size": "24"}, {"size": "144"}]}}}, "dtype": {"type": "DT_FLOAT"}}}, {"name": "StatefulPartitionedCall/EfficientDet-D0/model/stack_2/block_0/expand_conv2d/Conv2D_bn_offset", "op": "Const", "attr": {"value": {"tensor": {"dtype": "DT_FLOAT", "tensorShape": {"dim": [{"size": "144"}]}}}, "dtype": {"type": "DT_FLOAT"}}}, {"name": "StatefulPartitionedCall/EfficientDet-D0/model/stack_2/block_0/depthwise_conv2d/depthwise_weights", "op": "Const", "attr": {"value": {"tensor": {"dtype": "DT_FLOAT", "tensorShape": {"dim": [{"size": "5"}, {"size": "5"}, {"size": "144"}, {"size": "1"}]}}}, "dtype": {"type": "DT_FLOAT"}}}, {"name": "StatefulPartitionedCall/EfficientDet-D0/model/stack_2/block_0/depthwise_conv2d/depthwise_bn_offset", "op": "Const", "attr": {"value": {"tensor": {"dtype": "DT_FLOAT", "tensorShape": {"dim": [{"size": "144"}]}}}, "dtype": {"type": "DT_FLOAT"}}}, {"name": "StatefulPartitionedCall/EfficientDet-D0/model/stack_2/block_0/project_conv2d/Conv2D_weights", "op": "Const", "attr": {"value": {"tensor": {"dtype": "DT_FLOAT", "tensorShape": {"dim": [{"size": "1"}, {"size": "1"}, {"size": "144"}, {"size": "40"}]}}}, "dtype": {"type": "DT_FLOAT"}}}, {"name": "StatefulPartitionedCall/EfficientDet-D0/model/stack_2/block_0/project_conv2d/Conv2D_bn_offset", "op": "Const", "attr": {"dtype": {"type": "DT_FLOAT"}, "value": {"tensor": {"dtype": "DT_FLOAT", "tensorShape": {"dim": [{"size": "40"}]}}}}}, {"name": "StatefulPartitionedCall/EfficientDet-D0/model/stack_2/block_1/expand_conv2d/Conv2D_weights", "op": "Const", "attr": {"value": {"tensor": {"dtype": "DT_FLOAT", "tensorShape": {"dim": [{"size": "1"}, {"size": "1"}, {"size": "40"}, {"size": "240"}]}}}, "dtype": {"type": "DT_FLOAT"}}}, {"name": "StatefulPartitionedCall/EfficientDet-D0/model/stack_2/block_1/expand_conv2d/Conv2D_bn_offset", "op": "Const", "attr": {"dtype": {"type": "DT_FLOAT"}, "value": {"tensor": {"dtype": "DT_FLOAT", "tensorShape": {"dim": [{"size": "240"}]}}}}}, {"name": "StatefulPartitionedCall/EfficientDet-D0/model/stack_2/block_1/depthwise_conv2d/depthwise_weights", "op": "Const", "attr": {"value": {"tensor": {"dtype": "DT_FLOAT", "tensorShape": {"dim": [{"size": "5"}, {"size": "5"}, {"size": "240"}, {"size": "1"}]}}}, "dtype": {"type": "DT_FLOAT"}}}, {"name": "StatefulPartitionedCall/EfficientDet-D0/model/stack_2/block_1/depthwise_conv2d/depthwise_bn_offset", "op": "Const", "attr": {"dtype": {"type": "DT_FLOAT"}, "value": {"tensor": {"dtype": "DT_FLOAT", "tensorShape": {"dim": [{"size": "240"}]}}}}}, {"name": "StatefulPartitionedCall/EfficientDet-D0/model/stack_2/block_1/project_conv2d/Conv2D_weights", "op": "Const", "attr": {"value": {"tensor": {"dtype": "DT_FLOAT", "tensorShape": {"dim": [{"size": "1"}, {"size": "1"}, {"size": "240"}, {"size": "40"}]}}}, "dtype": {"type": "DT_FLOAT"}}}, {"name": "StatefulPartitionedCall/EfficientDet-D0/model/stack_2/block_1/project_conv2d/Conv2D_bn_offset", "op": "Const", "attr": {"dtype": {"type": "DT_FLOAT"}, "value": {"tensor": {"dtype": "DT_FLOAT", "tensorShape": {"dim": [{"size": "40"}]}}}}}, {"name": "StatefulPartitionedCall/EfficientDet-D0/model/stack_3/block_0/expand_conv2d/Conv2D_weights", "op": "Const", "attr": {"dtype": {"type": "DT_FLOAT"}, "value": {"tensor": {"dtype": "DT_FLOAT", "tensorShape": {"dim": [{"size": "1"}, {"size": "1"}, {"size": "40"}, {"size": "240"}]}}}}}, {"name": "StatefulPartitionedCall/EfficientDet-D0/model/stack_3/block_0/expand_conv2d/Conv2D_bn_offset", "op": "Const", "attr": {"dtype": {"type": "DT_FLOAT"}, "value": {"tensor": {"dtype": "DT_FLOAT", "tensorShape": {"dim": [{"size": "240"}]}}}}}, {"name": "StatefulPartitionedCall/EfficientDet-D0/bifpn/node_05/1_dn_lvl_3/input_0_up_lvl_3/1x1_pre_sample/conv/Conv2D_weights", "op": "Const", "attr": {"value": {"tensor": {"dtype": "DT_FLOAT", "tensorShape": {"dim": [{"size": "1"}, {"size": "1"}, {"size": "40"}, {"size": "64"}]}}}, "dtype": {"type": "DT_FLOAT"}}}, {"name": "StatefulPartitionedCall/EfficientDet-D0/bifpn/node_05/1_dn_lvl_3/input_0_up_lvl_3/1x1_pre_sample/conv/Conv2D_bn_offset", "op": "Const", "attr": {"value": {"tensor": {"dtype": "DT_FLOAT", "tensorShape": {"dim": [{"size": "64"}]}}}, "dtype": {"type": "DT_FLOAT"}}}, {"name": "StatefulPartitionedCall/EfficientDet-D0/model/stack_3/block_0/depthwise_conv2d/depthwise_weights", "op": "Const", "attr": {"value": {"tensor": {"dtype": "DT_FLOAT", "tensorShape": {"dim": [{"size": "3"}, {"size": "3"}, {"size": "240"}, {"size": "1"}]}}}, "dtype": {"type": "DT_FLOAT"}}}, {"name": "StatefulPartitionedCall/EfficientDet-D0/model/stack_3/block_0/depthwise_conv2d/depthwise_bn_offset", "op": "Const", "attr": {"dtype": {"type": "DT_FLOAT"}, "value": {"tensor": {"dtype": "DT_FLOAT", "tensorShape": {"dim": [{"size": "240"}]}}}}}, {"name": "StatefulPartitionedCall/EfficientDet-D0/model/stack_3/block_0/project_conv2d/Conv2D_weights", "op": "Const", "attr": {"dtype": {"type": "DT_FLOAT"}, "value": {"tensor": {"dtype": "DT_FLOAT", "tensorShape": {"dim": [{"size": "1"}, {"size": "1"}, {"size": "240"}, {"size": "80"}]}}}}}, {"name": "StatefulPartitionedCall/EfficientDet-D0/model/stack_3/block_0/project_conv2d/Conv2D_bn_offset", "op": "Const", "attr": {"dtype": {"type": "DT_FLOAT"}, "value": {"tensor": {"dtype": "DT_FLOAT", "tensorShape": {"dim": [{"size": "80"}]}}}}}, {"name": "StatefulPartitionedCall/EfficientDet-D0/model/stack_3/block_1/expand_conv2d/Conv2D_weights", "op": "Const", "attr": {"dtype": {"type": "DT_FLOAT"}, "value": {"tensor": {"dtype": "DT_FLOAT", "tensorShape": {"dim": [{"size": "1"}, {"size": "1"}, {"size": "80"}, {"size": "480"}]}}}}}, {"name": "StatefulPartitionedCall/EfficientDet-D0/model/stack_3/block_1/expand_conv2d/Conv2D_bn_offset", "op": "Const", "attr": {"dtype": {"type": "DT_FLOAT"}, "value": {"tensor": {"dtype": "DT_FLOAT", "tensorShape": {"dim": [{"size": "480"}]}}}}}, {"name": "StatefulPartitionedCall/EfficientDet-D0/model/stack_3/block_1/depthwise_conv2d/depthwise_weights", "op": "Const", "attr": {"value": {"tensor": {"dtype": "DT_FLOAT", "tensorShape": {"dim": [{"size": "3"}, {"size": "3"}, {"size": "480"}, {"size": "1"}]}}}, "dtype": {"type": "DT_FLOAT"}}}, {"name": "StatefulPartitionedCall/EfficientDet-D0/model/stack_3/block_1/depthwise_conv2d/depthwise_bn_offset", "op": "Const", "attr": {"dtype": {"type": "DT_FLOAT"}, "value": {"tensor": {"dtype": "DT_FLOAT", "tensorShape": {"dim": [{"size": "480"}]}}}}}, {"name": "StatefulPartitionedCall/EfficientDet-D0/model/stack_3/block_1/project_conv2d/Conv2D_weights", "op": "Const", "attr": {"value": {"tensor": {"dtype": "DT_FLOAT", "tensorShape": {"dim": [{"size": "1"}, {"size": "1"}, {"size": "480"}, {"size": "80"}]}}}, "dtype": {"type": "DT_FLOAT"}}}, {"name": "StatefulPartitionedCall/EfficientDet-D0/model/stack_3/block_1/project_conv2d/Conv2D_bn_offset", "op": "Const", "attr": {"dtype": {"type": "DT_FLOAT"}, "value": {"tensor": {"dtype": "DT_FLOAT", "tensorShape": {"dim": [{"size": "80"}]}}}}}, {"name": "StatefulPartitionedCall/EfficientDet-D0/model/stack_3/block_2/expand_conv2d/Conv2D_weights", "op": "Const", "attr": {"dtype": {"type": "DT_FLOAT"}, "value": {"tensor": {"dtype": "DT_FLOAT", "tensorShape": {"dim": [{"size": "1"}, {"size": "1"}, {"size": "80"}, {"size": "480"}]}}}}}, {"name": "StatefulPartitionedCall/EfficientDet-D0/model/stack_3/block_2/expand_conv2d/Conv2D_bn_offset", "op": "Const", "attr": {"value": {"tensor": {"dtype": "DT_FLOAT", "tensorShape": {"dim": [{"size": "480"}]}}}, "dtype": {"type": "DT_FLOAT"}}}, {"name": "StatefulPartitionedCall/EfficientDet-D0/model/stack_3/block_2/depthwise_conv2d/depthwise_weights", "op": "Const", "attr": {"dtype": {"type": "DT_FLOAT"}, "value": {"tensor": {"dtype": "DT_FLOAT", "tensorShape": {"dim": [{"size": "3"}, {"size": "3"}, {"size": "480"}, {"size": "1"}]}}}}}, {"name": "StatefulPartitionedCall/EfficientDet-D0/model/stack_3/block_2/depthwise_conv2d/depthwise_bn_offset", "op": "Const", "attr": {"value": {"tensor": {"dtype": "DT_FLOAT", "tensorShape": {"dim": [{"size": "480"}]}}}, "dtype": {"type": "DT_FLOAT"}}}, {"name": "StatefulPartitionedCall/EfficientDet-D0/model/stack_3/block_2/project_conv2d/Conv2D_weights", "op": "Const", "attr": {"dtype": {"type": "DT_FLOAT"}, "value": {"tensor": {"dtype": "DT_FLOAT", "tensorShape": {"dim": [{"size": "1"}, {"size": "1"}, {"size": "480"}, {"size": "80"}]}}}}}, {"name": "StatefulPartitionedCall/EfficientDet-D0/model/stack_3/block_2/project_conv2d/Conv2D_bn_offset", "op": "Const", "attr": {"value": {"tensor": {"dtype": "DT_FLOAT", "tensorShape": {"dim": [{"size": "80"}]}}}, "dtype": {"type": "DT_FLOAT"}}}, {"name": "StatefulPartitionedCall/EfficientDet-D0/model/stack_4/block_0/expand_conv2d/Conv2D_weights", "op": "Const", "attr": {"dtype": {"type": "DT_FLOAT"}, "value": {"tensor": {"dtype": "DT_FLOAT", "tensorShape": {"dim": [{"size": "1"}, {"size": "1"}, {"size": "80"}, {"size": "480"}]}}}}}, {"name": "StatefulPartitionedCall/EfficientDet-D0/model/stack_4/block_0/expand_conv2d/Conv2D_bn_offset", "op": "Const", "attr": {"value": {"tensor": {"dtype": "DT_FLOAT", "tensorShape": {"dim": [{"size": "480"}]}}}, "dtype": {"type": "DT_FLOAT"}}}, {"name": "StatefulPartitionedCall/EfficientDet-D0/model/stack_4/block_0/depthwise_conv2d/depthwise_weights", "op": "Const", "attr": {"value": {"tensor": {"dtype": "DT_FLOAT", "tensorShape": {"dim": [{"size": "5"}, {"size": "5"}, {"size": "480"}, {"size": "1"}]}}}, "dtype": {"type": "DT_FLOAT"}}}, {"name": "StatefulPartitionedCall/EfficientDet-D0/model/stack_4/block_0/depthwise_conv2d/depthwise_bn_offset", "op": "Const", "attr": {"dtype": {"type": "DT_FLOAT"}, "value": {"tensor": {"dtype": "DT_FLOAT", "tensorShape": {"dim": [{"size": "480"}]}}}}}, {"name": "StatefulPartitionedCall/EfficientDet-D0/model/stack_4/block_0/project_conv2d/Conv2D_weights", "op": "Const", "attr": {"value": {"tensor": {"dtype": "DT_FLOAT", "tensorShape": {"dim": [{"size": "1"}, {"size": "1"}, {"size": "480"}, {"size": "112"}]}}}, "dtype": {"type": "DT_FLOAT"}}}, {"name": "StatefulPartitionedCall/EfficientDet-D0/model/stack_4/block_0/project_conv2d/Conv2D_bn_offset", "op": "Const", "attr": {"value": {"tensor": {"dtype": "DT_FLOAT", "tensorShape": {"dim": [{"size": "112"}]}}}, "dtype": {"type": "DT_FLOAT"}}}, {"name": "StatefulPartitionedCall/EfficientDet-D0/model/stack_4/block_1/expand_conv2d/Conv2D_weights", "op": "Const", "attr": {"value": {"tensor": {"dtype": "DT_FLOAT", "tensorShape": {"dim": [{"size": "1"}, {"size": "1"}, {"size": "112"}, {"size": "672"}]}}}, "dtype": {"type": "DT_FLOAT"}}}, {"name": "StatefulPartitionedCall/EfficientDet-D0/model/stack_4/block_1/expand_conv2d/Conv2D_bn_offset", "op": "Const", "attr": {"value": {"tensor": {"dtype": "DT_FLOAT", "tensorShape": {"dim": [{"size": "672"}]}}}, "dtype": {"type": "DT_FLOAT"}}}, {"name": "StatefulPartitionedCall/EfficientDet-D0/model/stack_4/block_1/depthwise_conv2d/depthwise_weights", "op": "Const", "attr": {"value": {"tensor": {"dtype": "DT_FLOAT", "tensorShape": {"dim": [{"size": "5"}, {"size": "5"}, {"size": "672"}, {"size": "1"}]}}}, "dtype": {"type": "DT_FLOAT"}}}, {"name": "StatefulPartitionedCall/EfficientDet-D0/model/stack_4/block_1/depthwise_conv2d/depthwise_bn_offset", "op": "Const", "attr": {"value": {"tensor": {"dtype": "DT_FLOAT", "tensorShape": {"dim": [{"size": "672"}]}}}, "dtype": {"type": "DT_FLOAT"}}}, {"name": "StatefulPartitionedCall/EfficientDet-D0/model/stack_4/block_1/project_conv2d/Conv2D_weights", "op": "Const", "attr": {"value": {"tensor": {"dtype": "DT_FLOAT", "tensorShape": {"dim": [{"size": "1"}, {"size": "1"}, {"size": "672"}, {"size": "112"}]}}}, "dtype": {"type": "DT_FLOAT"}}}, {"name": "StatefulPartitionedCall/EfficientDet-D0/model/stack_4/block_1/project_conv2d/Conv2D_bn_offset", "op": "Const", "attr": {"dtype": {"type": "DT_FLOAT"}, "value": {"tensor": {"dtype": "DT_FLOAT", "tensorShape": {"dim": [{"size": "112"}]}}}}}, {"name": "StatefulPartitionedCall/EfficientDet-D0/model/stack_4/block_2/expand_conv2d/Conv2D_weights", "op": "Const", "attr": {"dtype": {"type": "DT_FLOAT"}, "value": {"tensor": {"dtype": "DT_FLOAT", "tensorShape": {"dim": [{"size": "1"}, {"size": "1"}, {"size": "112"}, {"size": "672"}]}}}}}, {"name": "StatefulPartitionedCall/EfficientDet-D0/model/stack_4/block_2/expand_conv2d/Conv2D_bn_offset", "op": "Const", "attr": {"dtype": {"type": "DT_FLOAT"}, "value": {"tensor": {"dtype": "DT_FLOAT", "tensorShape": {"dim": [{"size": "672"}]}}}}}, {"name": "StatefulPartitionedCall/EfficientDet-D0/model/stack_4/block_2/depthwise_conv2d/depthwise_weights", "op": "Const", "attr": {"value": {"tensor": {"dtype": "DT_FLOAT", "tensorShape": {"dim": [{"size": "5"}, {"size": "5"}, {"size": "672"}, {"size": "1"}]}}}, "dtype": {"type": "DT_FLOAT"}}}, {"name": "StatefulPartitionedCall/EfficientDet-D0/model/stack_4/block_2/depthwise_conv2d/depthwise_bn_offset", "op": "Const", "attr": {"value": {"tensor": {"dtype": "DT_FLOAT", "tensorShape": {"dim": [{"size": "672"}]}}}, "dtype": {"type": "DT_FLOAT"}}}, {"name": "StatefulPartitionedCall/EfficientDet-D0/model/stack_4/block_2/project_conv2d/Conv2D_weights", "op": "Const", "attr": {"value": {"tensor": {"dtype": "DT_FLOAT", "tensorShape": {"dim": [{"size": "1"}, {"size": "1"}, {"size": "672"}, {"size": "112"}]}}}, "dtype": {"type": "DT_FLOAT"}}}, {"name": "StatefulPartitionedCall/EfficientDet-D0/model/stack_4/block_2/project_conv2d/Conv2D_bn_offset", "op": "Const", "attr": {"dtype": {"type": "DT_FLOAT"}, "value": {"tensor": {"dtype": "DT_FLOAT", "tensorShape": {"dim": [{"size": "112"}]}}}}}, {"name": "StatefulPartitionedCall/EfficientDet-D0/model/stack_5/block_0/expand_conv2d/Conv2D_weights", "op": "Const", "attr": {"dtype": {"type": "DT_FLOAT"}, "value": {"tensor": {"dtype": "DT_FLOAT", "tensorShape": {"dim": [{"size": "1"}, {"size": "1"}, {"size": "112"}, {"size": "672"}]}}}}}, {"name": "StatefulPartitionedCall/EfficientDet-D0/model/stack_5/block_0/expand_conv2d/Conv2D_bn_offset", "op": "Const", "attr": {"dtype": {"type": "DT_FLOAT"}, "value": {"tensor": {"dtype": "DT_FLOAT", "tensorShape": {"dim": [{"size": "672"}]}}}}}, {"name": "StatefulPartitionedCall/EfficientDet-D0/bifpn/node_06/1_up_lvl_4/input_0_up_lvl_4/1x1_pre_sample/conv/Conv2D_weights", "op": "Const", "attr": {"dtype": {"type": "DT_FLOAT"}, "value": {"tensor": {"dtype": "DT_FLOAT", "tensorShape": {"dim": [{"size": "1"}, {"size": "1"}, {"size": "112"}, {"size": "64"}]}}}}}, {"name": "StatefulPartitionedCall/EfficientDet-D0/bifpn/node_06/1_up_lvl_4/input_0_up_lvl_4/1x1_pre_sample/conv/Conv2D_bn_offset", "op": "Const", "attr": {"value": {"tensor": {"dtype": "DT_FLOAT", "tensorShape": {"dim": [{"size": "64"}]}}}, "dtype": {"type": "DT_FLOAT"}}}, {"name": "StatefulPartitionedCall/EfficientDet-D0/bifpn/node_04/1_dn_lvl_4/input_0_up_lvl_4/1x1_pre_sample/conv/Conv2D_weights", "op": "Const", "attr": {"value": {"tensor": {"dtype": "DT_FLOAT", "tensorShape": {"dim": [{"size": "1"}, {"size": "1"}, {"size": "112"}, {"size": "64"}]}}}, "dtype": {"type": "DT_FLOAT"}}}, {"name": "StatefulPartitionedCall/EfficientDet-D0/bifpn/node_04/1_dn_lvl_4/input_0_up_lvl_4/1x1_pre_sample/conv/Conv2D_bn_offset", "op": "Const", "attr": {"dtype": {"type": "DT_FLOAT"}, "value": {"tensor": {"dtype": "DT_FLOAT", "tensorShape": {"dim": [{"size": "64"}]}}}}}, {"name": "StatefulPartitionedCall/EfficientDet-D0/model/stack_5/block_0/depthwise_conv2d/depthwise_weights", "op": "Const", "attr": {"value": {"tensor": {"dtype": "DT_FLOAT", "tensorShape": {"dim": [{"size": "5"}, {"size": "5"}, {"size": "672"}, {"size": "1"}]}}}, "dtype": {"type": "DT_FLOAT"}}}, {"name": "StatefulPartitionedCall/EfficientDet-D0/model/stack_5/block_0/depthwise_conv2d/depthwise_bn_offset", "op": "Const", "attr": {"dtype": {"type": "DT_FLOAT"}, "value": {"tensor": {"dtype": "DT_FLOAT", "tensorShape": {"dim": [{"size": "672"}]}}}}}, {"name": "StatefulPartitionedCall/EfficientDet-D0/model/stack_5/block_0/project_conv2d/Conv2D_weights", "op": "Const", "attr": {"dtype": {"type": "DT_FLOAT"}, "value": {"tensor": {"dtype": "DT_FLOAT", "tensorShape": {"dim": [{"size": "1"}, {"size": "1"}, {"size": "672"}, {"size": "192"}]}}}}}, {"name": "StatefulPartitionedCall/EfficientDet-D0/model/stack_5/block_0/project_conv2d/Conv2D_bn_offset", "op": "Const", "attr": {"dtype": {"type": "DT_FLOAT"}, "value": {"tensor": {"dtype": "DT_FLOAT", "tensorShape": {"dim": [{"size": "192"}]}}}}}, {"name": "StatefulPartitionedCall/EfficientDet-D0/model/stack_5/block_1/expand_conv2d/Conv2D_weights", "op": "Const", "attr": {"value": {"tensor": {"dtype": "DT_FLOAT", "tensorShape": {"dim": [{"size": "1"}, {"size": "1"}, {"size": "192"}, {"size": "1152"}]}}}, "dtype": {"type": "DT_FLOAT"}}}, {"name": "StatefulPartitionedCall/EfficientDet-D0/model/stack_5/block_1/expand_conv2d/Conv2D_bn_offset", "op": "Const", "attr": {"dtype": {"type": "DT_FLOAT"}, "value": {"tensor": {"dtype": "DT_FLOAT", "tensorShape": {"dim": [{"size": "1152"}]}}}}}, {"name": "StatefulPartitionedCall/EfficientDet-D0/model/stack_5/block_1/depthwise_conv2d/depthwise_weights", "op": "Const", "attr": {"value": {"tensor": {"dtype": "DT_FLOAT", "tensorShape": {"dim": [{"size": "5"}, {"size": "5"}, {"size": "1152"}, {"size": "1"}]}}}, "dtype": {"type": "DT_FLOAT"}}}, {"name": "StatefulPartitionedCall/EfficientDet-D0/model/stack_5/block_1/depthwise_conv2d/depthwise_bn_offset", "op": "Const", "attr": {"value": {"tensor": {"dtype": "DT_FLOAT", "tensorShape": {"dim": [{"size": "1152"}]}}}, "dtype": {"type": "DT_FLOAT"}}}, {"name": "StatefulPartitionedCall/EfficientDet-D0/model/stack_5/block_1/project_conv2d/Conv2D_weights", "op": "Const", "attr": {"value": {"tensor": {"dtype": "DT_FLOAT", "tensorShape": {"dim": [{"size": "1"}, {"size": "1"}, {"size": "1152"}, {"size": "192"}]}}}, "dtype": {"type": "DT_FLOAT"}}}, {"name": "StatefulPartitionedCall/EfficientDet-D0/model/stack_5/block_1/project_conv2d/Conv2D_bn_offset", "op": "Const", "attr": {"dtype": {"type": "DT_FLOAT"}, "value": {"tensor": {"dtype": "DT_FLOAT", "tensorShape": {"dim": [{"size": "192"}]}}}}}, {"name": "StatefulPartitionedCall/EfficientDet-D0/model/stack_5/block_2/expand_conv2d/Conv2D_weights", "op": "Const", "attr": {"value": {"tensor": {"dtype": "DT_FLOAT", "tensorShape": {"dim": [{"size": "1"}, {"size": "1"}, {"size": "192"}, {"size": "1152"}]}}}, "dtype": {"type": "DT_FLOAT"}}}, {"name": "StatefulPartitionedCall/EfficientDet-D0/model/stack_5/block_2/expand_conv2d/Conv2D_bn_offset", "op": "Const", "attr": {"value": {"tensor": {"dtype": "DT_FLOAT", "tensorShape": {"dim": [{"size": "1152"}]}}}, "dtype": {"type": "DT_FLOAT"}}}, {"name": "StatefulPartitionedCall/EfficientDet-D0/model/stack_5/block_2/depthwise_conv2d/depthwise_weights", "op": "Const", "attr": {"dtype": {"type": "DT_FLOAT"}, "value": {"tensor": {"dtype": "DT_FLOAT", "tensorShape": {"dim": [{"size": "5"}, {"size": "5"}, {"size": "1152"}, {"size": "1"}]}}}}}, {"name": "StatefulPartitionedCall/EfficientDet-D0/model/stack_5/block_2/depthwise_conv2d/depthwise_bn_offset", "op": "Const", "attr": {"value": {"tensor": {"dtype": "DT_FLOAT", "tensorShape": {"dim": [{"size": "1152"}]}}}, "dtype": {"type": "DT_FLOAT"}}}, {"name": "StatefulPartitionedCall/EfficientDet-D0/model/stack_5/block_2/project_conv2d/Conv2D_weights", "op": "Const", "attr": {"dtype": {"type": "DT_FLOAT"}, "value": {"tensor": {"dtype": "DT_FLOAT", "tensorShape": {"dim": [{"size": "1"}, {"size": "1"}, {"size": "1152"}, {"size": "192"}]}}}}}, {"name": "StatefulPartitionedCall/EfficientDet-D0/model/stack_5/block_2/project_conv2d/Conv2D_bn_offset", "op": "Const", "attr": {"value": {"tensor": {"dtype": "DT_FLOAT", "tensorShape": {"dim": [{"size": "192"}]}}}, "dtype": {"type": "DT_FLOAT"}}}, {"name": "StatefulPartitionedCall/EfficientDet-D0/model/stack_5/block_3/expand_conv2d/Conv2D_weights", "op": "Const", "attr": {"value": {"tensor": {"dtype": "DT_FLOAT", "tensorShape": {"dim": [{"size": "1"}, {"size": "1"}, {"size": "192"}, {"size": "1152"}]}}}, "dtype": {"type": "DT_FLOAT"}}}, {"name": "StatefulPartitionedCall/EfficientDet-D0/model/stack_5/block_3/expand_conv2d/Conv2D_bn_offset", "op": "Const", "attr": {"dtype": {"type": "DT_FLOAT"}, "value": {"tensor": {"dtype": "DT_FLOAT", "tensorShape": {"dim": [{"size": "1152"}]}}}}}, {"name": "StatefulPartitionedCall/EfficientDet-D0/model/stack_5/block_3/depthwise_conv2d/depthwise_weights", "op": "Const", "attr": {"value": {"tensor": {"dtype": "DT_FLOAT", "tensorShape": {"dim": [{"size": "5"}, {"size": "5"}, {"size": "1152"}, {"size": "1"}]}}}, "dtype": {"type": "DT_FLOAT"}}}, {"name": "StatefulPartitionedCall/EfficientDet-D0/model/stack_5/block_3/depthwise_conv2d/depthwise_bn_offset", "op": "Const", "attr": {"value": {"tensor": {"dtype": "DT_FLOAT", "tensorShape": {"dim": [{"size": "1152"}]}}}, "dtype": {"type": "DT_FLOAT"}}}, {"name": "StatefulPartitionedCall/EfficientDet-D0/model/stack_5/block_3/project_conv2d/Conv2D_weights", "op": "Const", "attr": {"value": {"tensor": {"dtype": "DT_FLOAT", "tensorShape": {"dim": [{"size": "1"}, {"size": "1"}, {"size": "1152"}, {"size": "192"}]}}}, "dtype": {"type": "DT_FLOAT"}}}, {"name": "StatefulPartitionedCall/EfficientDet-D0/model/stack_5/block_3/project_conv2d/Conv2D_bn_offset", "op": "Const", "attr": {"value": {"tensor": {"dtype": "DT_FLOAT", "tensorShape": {"dim": [{"size": "192"}]}}}, "dtype": {"type": "DT_FLOAT"}}}, {"name": "StatefulPartitionedCall/EfficientDet-D0/model/stack_6/block_0/expand_conv2d/Conv2D_weights", "op": "Const", "attr": {"dtype": {"type": "DT_FLOAT"}, "value": {"tensor": {"dtype": "DT_FLOAT", "tensorShape": {"dim": [{"size": "1"}, {"size": "1"}, {"size": "192"}, {"size": "1152"}]}}}}}, {"name": "StatefulPartitionedCall/EfficientDet-D0/model/stack_6/block_0/expand_conv2d/Conv2D_bn_offset", "op": "Const", "attr": {"value": {"tensor": {"dtype": "DT_FLOAT", "tensorShape": {"dim": [{"size": "1152"}]}}}, "dtype": {"type": "DT_FLOAT"}}}, {"name": "StatefulPartitionedCall/EfficientDet-D0/model/stack_6/block_0/depthwise_conv2d/depthwise_weights", "op": "Const", "attr": {"value": {"tensor": {"dtype": "DT_FLOAT", "tensorShape": {"dim": [{"size": "3"}, {"size": "3"}, {"size": "1152"}, {"size": "1"}]}}}, "dtype": {"type": "DT_FLOAT"}}}, {"name": "StatefulPartitionedCall/EfficientDet-D0/model/stack_6/block_0/depthwise_conv2d/depthwise_bn_offset", "op": "Const", "attr": {"value": {"tensor": {"dtype": "DT_FLOAT", "tensorShape": {"dim": [{"size": "1152"}]}}}, "dtype": {"type": "DT_FLOAT"}}}, {"name": "StatefulPartitionedCall/EfficientDet-D0/model/stack_6/block_0/project_conv2d/Conv2D_weights", "op": "Const", "attr": {"value": {"tensor": {"dtype": "DT_FLOAT", "tensorShape": {"dim": [{"size": "1"}, {"size": "1"}, {"size": "1152"}, {"size": "320"}]}}}, "dtype": {"type": "DT_FLOAT"}}}, {"name": "StatefulPartitionedCall/EfficientDet-D0/model/stack_6/block_0/project_conv2d/Conv2D_bn_offset", "op": "Const", "attr": {"value": {"tensor": {"dtype": "DT_FLOAT", "tensorShape": {"dim": [{"size": "320"}]}}}, "dtype": {"type": "DT_FLOAT"}}}, {"name": "StatefulPartitionedCall/EfficientDet-D0/bifpn/node_07/1_up_lvl_5/input_0_up_lvl_5/1x1_pre_sample/conv/Conv2D_weights", "op": "Const", "attr": {"dtype": {"type": "DT_FLOAT"}, "value": {"tensor": {"dtype": "DT_FLOAT", "tensorShape": {"dim": [{"size": "1"}, {"size": "1"}, {"size": "320"}, {"size": "64"}]}}}}}, {"name": "StatefulPartitionedCall/EfficientDet-D0/bifpn/node_07/1_up_lvl_5/input_0_up_lvl_5/1x1_pre_sample/conv/Conv2D_bn_offset", "op": "Const", "attr": {"value": {"tensor": {"dtype": "DT_FLOAT", "tensorShape": {"dim": [{"size": "64"}]}}}, "dtype": {"type": "DT_FLOAT"}}}, {"name": "StatefulPartitionedCall/EfficientDet-D0/bifpn/node_03/1_dn_lvl_5/input_0_up_lvl_5/1x1_pre_sample/conv/Conv2D_weights", "op": "Const", "attr": {"value": {"tensor": {"dtype": "DT_FLOAT", "tensorShape": {"dim": [{"size": "1"}, {"size": "1"}, {"size": "320"}, {"size": "64"}]}}}, "dtype": {"type": "DT_FLOAT"}}}, {"name": "StatefulPartitionedCall/EfficientDet-D0/bifpn/node_03/1_dn_lvl_5/input_0_up_lvl_5/1x1_pre_sample/conv/Conv2D_bn_offset", "op": "Const", "attr": {"dtype": {"type": "DT_FLOAT"}, "value": {"tensor": {"dtype": "DT_FLOAT", "tensorShape": {"dim": [{"size": "64"}]}}}}}, {"name": "StatefulPartitionedCall/EfficientDet-D0/bifpn/node_00/0_up_lvl_6/input_0_up_lvl_5/1x1_pre_sample/conv/Conv2D_weights", "op": "Const", "attr": {"dtype": {"type": "DT_FLOAT"}, "value": {"tensor": {"dtype": "DT_FLOAT", "tensorShape": {"dim": [{"size": "1"}, {"size": "1"}, {"size": "320"}, {"size": "64"}]}}}}}, {"name": "StatefulPartitionedCall/EfficientDet-D0/bifpn/node_00/0_up_lvl_6/input_0_up_lvl_5/1x1_pre_sample/conv/Conv2D_bn_offset", "op": "Const", "attr": {"dtype": {"type": "DT_FLOAT"}, "value": {"tensor": {"dtype": "DT_FLOAT", "tensorShape": {"dim": [{"size": "64"}]}}}}}, {"name": "StatefulPartitionedCall/EfficientDet-D0/bifpn/node_02/1_dn_lvl_6/post_combine/separable_conv/separable_conv2d_weights", "op": "Const", "attr": {"value": {"tensor": {"dtype": "DT_FLOAT", "tensorShape": {"dim": [{"size": "1"}, {"size": "1"}, {"size": "64"}, {"size": "64"}]}}}, "dtype": {"type": "DT_FLOAT"}}}, {"name": "StatefulPartitionedCall/EfficientDet-D0/bifpn/node_02/1_dn_lvl_6/post_combine/separable_conv/separable_conv2d_bn_offset", "op": "Const", "attr": {"dtype": {"type": "DT_FLOAT"}, "value": {"tensor": {"dtype": "DT_FLOAT", "tensorShape": {"dim": [{"size": "64"}]}}}}}, {"name": "StatefulPartitionedCall/EfficientDet-D0/bifpn/node_03/1_dn_lvl_5/post_combine/separable_conv/separable_conv2d_weights", "op": "Const", "attr": {"value": {"tensor": {"dtype": "DT_FLOAT", "tensorShape": {"dim": [{"size": "1"}, {"size": "1"}, {"size": "64"}, {"size": "64"}]}}}, "dtype": {"type": "DT_FLOAT"}}}, {"name": "StatefulPartitionedCall/EfficientDet-D0/bifpn/node_03/1_dn_lvl_5/post_combine/separable_conv/separable_conv2d_bn_offset", "op": "Const", "attr": {"value": {"tensor": {"dtype": "DT_FLOAT", "tensorShape": {"dim": [{"size": "64"}]}}}, "dtype": {"type": "DT_FLOAT"}}}, {"name": "StatefulPartitionedCall/EfficientDet-D0/bifpn/node_04/1_dn_lvl_4/post_combine/separable_conv/separable_conv2d_weights", "op": "Const", "attr": {"value": {"tensor": {"dtype": "DT_FLOAT", "tensorShape": {"dim": [{"size": "1"}, {"size": "1"}, {"size": "64"}, {"size": "64"}]}}}, "dtype": {"type": "DT_FLOAT"}}}, {"name": "StatefulPartitionedCall/EfficientDet-D0/bifpn/node_04/1_dn_lvl_4/post_combine/separable_conv/separable_conv2d_bn_offset", "op": "Const", "attr": {"dtype": {"type": "DT_FLOAT"}, "value": {"tensor": {"dtype": "DT_FLOAT", "tensorShape": {"dim": [{"size": "64"}]}}}}}, {"name": "StatefulPartitionedCall/EfficientDet-D0/bifpn/node_05/1_dn_lvl_3/post_combine/separable_conv/separable_conv2d_weights", "op": "Const", "attr": {"dtype": {"type": "DT_FLOAT"}, "value": {"tensor": {"dtype": "DT_FLOAT", "tensorShape": {"dim": [{"size": "1"}, {"size": "1"}, {"size": "64"}, {"size": "64"}]}}}}}, {"name": "StatefulPartitionedCall/EfficientDet-D0/bifpn/node_05/1_dn_lvl_3/post_combine/separable_conv/separable_conv2d_bn_offset", "op": "Const", "attr": {"dtype": {"type": "DT_FLOAT"}, "value": {"tensor": {"dtype": "DT_FLOAT", "tensorShape": {"dim": [{"size": "64"}]}}}}}, {"name": "StatefulPartitionedCall/EfficientDet-D0/bifpn/node_06/1_up_lvl_4/post_combine/separable_conv/separable_conv2d_weights", "op": "Const", "attr": {"value": {"tensor": {"dtype": "DT_FLOAT", "tensorShape": {"dim": [{"size": "1"}, {"size": "1"}, {"size": "64"}, {"size": "64"}]}}}, "dtype": {"type": "DT_FLOAT"}}}, {"name": "StatefulPartitionedCall/EfficientDet-D0/bifpn/node_06/1_up_lvl_4/post_combine/separable_conv/separable_conv2d_bn_offset", "op": "Const", "attr": {"dtype": {"type": "DT_FLOAT"}, "value": {"tensor": {"dtype": "DT_FLOAT", "tensorShape": {"dim": [{"size": "64"}]}}}}}, {"name": "StatefulPartitionedCall/EfficientDet-D0/bifpn/node_07/1_up_lvl_5/post_combine/separable_conv/separable_conv2d_weights", "op": "Const", "attr": {"dtype": {"type": "DT_FLOAT"}, "value": {"tensor": {"dtype": "DT_FLOAT", "tensorShape": {"dim": [{"size": "1"}, {"size": "1"}, {"size": "64"}, {"size": "64"}]}}}}}, {"name": "StatefulPartitionedCall/EfficientDet-D0/bifpn/node_07/1_up_lvl_5/post_combine/separable_conv/separable_conv2d_bn_offset", "op": "Const", "attr": {"value": {"tensor": {"dtype": "DT_FLOAT", "tensorShape": {"dim": [{"size": "64"}]}}}, "dtype": {"type": "DT_FLOAT"}}}, {"name": "StatefulPartitionedCall/EfficientDet-D0/bifpn/node_08/1_up_lvl_6/post_combine/separable_conv/separable_conv2d_weights", "op": "Const", "attr": {"dtype": {"type": "DT_FLOAT"}, "value": {"tensor": {"dtype": "DT_FLOAT", "tensorShape": {"dim": [{"size": "1"}, {"size": "1"}, {"size": "64"}, {"size": "64"}]}}}}}, {"name": "StatefulPartitionedCall/EfficientDet-D0/bifpn/node_08/1_up_lvl_6/post_combine/separable_conv/separable_conv2d_bn_offset", "op": "Const", "attr": {"dtype": {"type": "DT_FLOAT"}, "value": {"tensor": {"dtype": "DT_FLOAT", "tensorShape": {"dim": [{"size": "64"}]}}}}}, {"name": "StatefulPartitionedCall/EfficientDet-D0/bifpn/node_09/1_up_lvl_7/post_combine/separable_conv/separable_conv2d_weights", "op": "Const", "attr": {"dtype": {"type": "DT_FLOAT"}, "value": {"tensor": {"dtype": "DT_FLOAT", "tensorShape": {"dim": [{"size": "1"}, {"size": "1"}, {"size": "64"}, {"size": "64"}]}}}}}, {"name": "StatefulPartitionedCall/EfficientDet-D0/bifpn/node_09/1_up_lvl_7/post_combine/separable_conv/separable_conv2d_bn_offset", "op": "Const", "attr": {"dtype": {"type": "DT_FLOAT"}, "value": {"tensor": {"dtype": "DT_FLOAT", "tensorShape": {"dim": [{"size": "64"}]}}}}}, {"name": "StatefulPartitionedCall/EfficientDet-D0/bifpn/node_10/2_dn_lvl_6/post_combine/separable_conv/separable_conv2d_weights", "op": "Const", "attr": {"dtype": {"type": "DT_FLOAT"}, "value": {"tensor": {"dtype": "DT_FLOAT", "tensorShape": {"dim": [{"size": "1"}, {"size": "1"}, {"size": "64"}, {"size": "64"}]}}}}}, {"name": "StatefulPartitionedCall/EfficientDet-D0/bifpn/node_10/2_dn_lvl_6/post_combine/separable_conv/separable_conv2d_bn_offset", "op": "Const", "attr": {"dtype": {"type": "DT_FLOAT"}, "value": {"tensor": {"dtype": "DT_FLOAT", "tensorShape": {"dim": [{"size": "64"}]}}}}}, {"name": "StatefulPartitionedCall/EfficientDet-D0/bifpn/node_11/2_dn_lvl_5/post_combine/separable_conv/separable_conv2d_weights", "op": "Const", "attr": {"dtype": {"type": "DT_FLOAT"}, "value": {"tensor": {"dtype": "DT_FLOAT", "tensorShape": {"dim": [{"size": "1"}, {"size": "1"}, {"size": "64"}, {"size": "64"}]}}}}}, {"name": "StatefulPartitionedCall/EfficientDet-D0/bifpn/node_11/2_dn_lvl_5/post_combine/separable_conv/separable_conv2d_bn_offset", "op": "Const", "attr": {"value": {"tensor": {"dtype": "DT_FLOAT", "tensorShape": {"dim": [{"size": "64"}]}}}, "dtype": {"type": "DT_FLOAT"}}}, {"name": "StatefulPartitionedCall/EfficientDet-D0/bifpn/node_12/2_dn_lvl_4/post_combine/separable_conv/separable_conv2d_weights", "op": "Const", "attr": {"dtype": {"type": "DT_FLOAT"}, "value": {"tensor": {"dtype": "DT_FLOAT", "tensorShape": {"dim": [{"size": "1"}, {"size": "1"}, {"size": "64"}, {"size": "64"}]}}}}}, {"name": "StatefulPartitionedCall/EfficientDet-D0/bifpn/node_12/2_dn_lvl_4/post_combine/separable_conv/separable_conv2d_bn_offset", "op": "Const", "attr": {"value": {"tensor": {"dtype": "DT_FLOAT", "tensorShape": {"dim": [{"size": "64"}]}}}, "dtype": {"type": "DT_FLOAT"}}}, {"name": "StatefulPartitionedCall/EfficientDet-D0/bifpn/node_13/2_dn_lvl_3/post_combine/separable_conv/separable_conv2d_weights", "op": "Const", "attr": {"value": {"tensor": {"dtype": "DT_FLOAT", "tensorShape": {"dim": [{"size": "1"}, {"size": "1"}, {"size": "64"}, {"size": "64"}]}}}, "dtype": {"type": "DT_FLOAT"}}}, {"name": "StatefulPartitionedCall/EfficientDet-D0/bifpn/node_13/2_dn_lvl_3/post_combine/separable_conv/separable_conv2d_bn_offset", "op": "Const", "attr": {"value": {"tensor": {"dtype": "DT_FLOAT", "tensorShape": {"dim": [{"size": "64"}]}}}, "dtype": {"type": "DT_FLOAT"}}}, {"name": "StatefulPartitionedCall/EfficientDet-D0/bifpn/node_14/2_up_lvl_4/post_combine/separable_conv/separable_conv2d_weights", "op": "Const", "attr": {"value": {"tensor": {"dtype": "DT_FLOAT", "tensorShape": {"dim": [{"size": "1"}, {"size": "1"}, {"size": "64"}, {"size": "64"}]}}}, "dtype": {"type": "DT_FLOAT"}}}, {"name": "StatefulPartitionedCall/EfficientDet-D0/bifpn/node_14/2_up_lvl_4/post_combine/separable_conv/separable_conv2d_bn_offset", "op": "Const", "attr": {"dtype": {"type": "DT_FLOAT"}, "value": {"tensor": {"dtype": "DT_FLOAT", "tensorShape": {"dim": [{"size": "64"}]}}}}}, {"name": "StatefulPartitionedCall/EfficientDet-D0/bifpn/node_15/2_up_lvl_5/post_combine/separable_conv/separable_conv2d_weights", "op": "Const", "attr": {"value": {"tensor": {"dtype": "DT_FLOAT", "tensorShape": {"dim": [{"size": "1"}, {"size": "1"}, {"size": "64"}, {"size": "64"}]}}}, "dtype": {"type": "DT_FLOAT"}}}, {"name": "StatefulPartitionedCall/EfficientDet-D0/bifpn/node_15/2_up_lvl_5/post_combine/separable_conv/separable_conv2d_bn_offset", "op": "Const", "attr": {"dtype": {"type": "DT_FLOAT"}, "value": {"tensor": {"dtype": "DT_FLOAT", "tensorShape": {"dim": [{"size": "64"}]}}}}}, {"name": "StatefulPartitionedCall/EfficientDet-D0/bifpn/node_16/2_up_lvl_6/post_combine/separable_conv/separable_conv2d_weights", "op": "Const", "attr": {"value": {"tensor": {"dtype": "DT_FLOAT", "tensorShape": {"dim": [{"size": "1"}, {"size": "1"}, {"size": "64"}, {"size": "64"}]}}}, "dtype": {"type": "DT_FLOAT"}}}, {"name": "StatefulPartitionedCall/EfficientDet-D0/bifpn/node_16/2_up_lvl_6/post_combine/separable_conv/separable_conv2d_bn_offset", "op": "Const", "attr": {"dtype": {"type": "DT_FLOAT"}, "value": {"tensor": {"dtype": "DT_FLOAT", "tensorShape": {"dim": [{"size": "64"}]}}}}}, {"name": "StatefulPartitionedCall/EfficientDet-D0/bifpn/node_17/2_up_lvl_7/post_combine/separable_conv/separable_conv2d_weights", "op": "Const", "attr": {"value": {"tensor": {"dtype": "DT_FLOAT", "tensorShape": {"dim": [{"size": "1"}, {"size": "1"}, {"size": "64"}, {"size": "64"}]}}}, "dtype": {"type": "DT_FLOAT"}}}, {"name": "StatefulPartitionedCall/EfficientDet-D0/bifpn/node_17/2_up_lvl_7/post_combine/separable_conv/separable_conv2d_bn_offset", "op": "Const", "attr": {"dtype": {"type": "DT_FLOAT"}, "value": {"tensor": {"dtype": "DT_FLOAT", "tensorShape": {"dim": [{"size": "64"}]}}}}}, {"name": "StatefulPartitionedCall/EfficientDet-D0/bifpn/node_18/3_dn_lvl_6/post_combine/separable_conv/separable_conv2d_weights", "op": "Const", "attr": {"dtype": {"type": "DT_FLOAT"}, "value": {"tensor": {"dtype": "DT_FLOAT", "tensorShape": {"dim": [{"size": "1"}, {"size": "1"}, {"size": "64"}, {"size": "64"}]}}}}}, {"name": "StatefulPartitionedCall/EfficientDet-D0/bifpn/node_18/3_dn_lvl_6/post_combine/separable_conv/separable_conv2d_bn_offset", "op": "Const", "attr": {"dtype": {"type": "DT_FLOAT"}, "value": {"tensor": {"dtype": "DT_FLOAT", "tensorShape": {"dim": [{"size": "64"}]}}}}}, {"name": "StatefulPartitionedCall/EfficientDet-D0/bifpn/node_19/3_dn_lvl_5/post_combine/separable_conv/separable_conv2d_weights", "op": "Const", "attr": {"dtype": {"type": "DT_FLOAT"}, "value": {"tensor": {"dtype": "DT_FLOAT", "tensorShape": {"dim": [{"size": "1"}, {"size": "1"}, {"size": "64"}, {"size": "64"}]}}}}}, {"name": "StatefulPartitionedCall/EfficientDet-D0/bifpn/node_19/3_dn_lvl_5/post_combine/separable_conv/separable_conv2d_bn_offset", "op": "Const", "attr": {"value": {"tensor": {"dtype": "DT_FLOAT", "tensorShape": {"dim": [{"size": "64"}]}}}, "dtype": {"type": "DT_FLOAT"}}}, {"name": "StatefulPartitionedCall/EfficientDet-D0/bifpn/node_20/3_dn_lvl_4/post_combine/separable_conv/separable_conv2d_weights", "op": "Const", "attr": {"dtype": {"type": "DT_FLOAT"}, "value": {"tensor": {"dtype": "DT_FLOAT", "tensorShape": {"dim": [{"size": "1"}, {"size": "1"}, {"size": "64"}, {"size": "64"}]}}}}}, {"name": "StatefulPartitionedCall/EfficientDet-D0/bifpn/node_20/3_dn_lvl_4/post_combine/separable_conv/separable_conv2d_bn_offset", "op": "Const", "attr": {"dtype": {"type": "DT_FLOAT"}, "value": {"tensor": {"dtype": "DT_FLOAT", "tensorShape": {"dim": [{"size": "64"}]}}}}}, {"name": "StatefulPartitionedCall/EfficientDet-D0/bifpn/node_21/3_dn_lvl_3/post_combine/separable_conv/separable_conv2d_weights", "op": "Const", "attr": {"dtype": {"type": "DT_FLOAT"}, "value": {"tensor": {"dtype": "DT_FLOAT", "tensorShape": {"dim": [{"size": "1"}, {"size": "1"}, {"size": "64"}, {"size": "64"}]}}}}}, {"name": "StatefulPartitionedCall/EfficientDet-D0/bifpn/node_21/3_dn_lvl_3/post_combine/separable_conv/separable_conv2d_bn_offset", "op": "Const", "attr": {"value": {"tensor": {"dtype": "DT_FLOAT", "tensorShape": {"dim": [{"size": "64"}]}}}, "dtype": {"type": "DT_FLOAT"}}}, {"name": "StatefulPartitionedCall/WeightSharedConvolutionalBoxPredictor/BoxPredictionTower/conv2d_0/separable_conv2d_weights", "op": "Const", "attr": {"value": {"tensor": {"dtype": "DT_FLOAT", "tensorShape": {"dim": [{"size": "1"}, {"size": "1"}, {"size": "64"}, {"size": "64"}]}}}, "dtype": {"type": "DT_FLOAT"}}}, {"name": "StatefulPartitionedCall/WeightSharedConvolutionalBoxPredictor/BoxPredictionTower/conv2d_0/separable_conv2d_bn_offset", "op": "Const", "attr": {"dtype": {"type": "DT_FLOAT"}, "value": {"tensor": {"dtype": "DT_FLOAT", "tensorShape": {"dim": [{"size": "64"}]}}}}}, {"name": "StatefulPartitionedCall/WeightSharedConvolutionalBoxPredictor/ClassPredictionTower/conv2d_0/separable_conv2d_weights", "op": "Const", "attr": {"value": {"tensor": {"dtype": "DT_FLOAT", "tensorShape": {"dim": [{"size": "1"}, {"size": "1"}, {"size": "64"}, {"size": "64"}]}}}, "dtype": {"type": "DT_FLOAT"}}}, {"name": "StatefulPartitionedCall/WeightSharedConvolutionalBoxPredictor/ClassPredictionTower/conv2d_0/separable_conv2d_bn_offset", "op": "Const", "attr": {"value": {"tensor": {"dtype": "DT_FLOAT", "tensorShape": {"dim": [{"size": "64"}]}}}, "dtype": {"type": "DT_FLOAT"}}}, {"name": "StatefulPartitionedCall/WeightSharedConvolutionalBoxPredictor/BoxPredictionTower/conv2d_1/separable_conv2d_weights", "op": "Const", "attr": {"value": {"tensor": {"dtype": "DT_FLOAT", "tensorShape": {"dim": [{"size": "1"}, {"size": "1"}, {"size": "64"}, {"size": "64"}]}}}, "dtype": {"type": "DT_FLOAT"}}}, {"name": "StatefulPartitionedCall/WeightSharedConvolutionalBoxPredictor/BoxPredictionTower/conv2d_1/separable_conv2d_bn_offset", "op": "Const", "attr": {"value": {"tensor": {"dtype": "DT_FLOAT", "tensorShape": {"dim": [{"size": "64"}]}}}, "dtype": {"type": "DT_FLOAT"}}}, {"name": "StatefulPartitionedCall/WeightSharedConvolutionalBoxPredictor/ClassPredictionTower/conv2d_1/separable_conv2d_weights", "op": "Const", "attr": {"value": {"tensor": {"dtype": "DT_FLOAT", "tensorShape": {"dim": [{"size": "1"}, {"size": "1"}, {"size": "64"}, {"size": "64"}]}}}, "dtype": {"type": "DT_FLOAT"}}}, {"name": "StatefulPartitionedCall/WeightSharedConvolutionalBoxPredictor/ClassPredictionTower/conv2d_1/separable_conv2d_bn_offset", "op": "Const", "attr": {"dtype": {"type": "DT_FLOAT"}, "value": {"tensor": {"dtype": "DT_FLOAT", "tensorShape": {"dim": [{"size": "64"}]}}}}}, {"name": "StatefulPartitionedCall/EfficientDet-D0/bifpn/node_22/3_up_lvl_4/post_combine/separable_conv/separable_conv2d_weights", "op": "Const", "attr": {"value": {"tensor": {"dtype": "DT_FLOAT", "tensorShape": {"dim": [{"size": "1"}, {"size": "1"}, {"size": "64"}, {"size": "64"}]}}}, "dtype": {"type": "DT_FLOAT"}}}, {"name": "StatefulPartitionedCall/EfficientDet-D0/bifpn/node_22/3_up_lvl_4/post_combine/separable_conv/separable_conv2d_bn_offset", "op": "Const", "attr": {"dtype": {"type": "DT_FLOAT"}, "value": {"tensor": {"dtype": "DT_FLOAT", "tensorShape": {"dim": [{"size": "64"}]}}}}}, {"name": "StatefulPartitionedCall/WeightSharedConvolutionalBoxPredictor/BoxPredictionTower/conv2d_0/separable_conv2d_1_weights", "op": "Const", "attr": {"dtype": {"type": "DT_FLOAT"}, "value": {"tensor": {"dtype": "DT_FLOAT", "tensorShape": {"dim": [{"size": "1"}, {"size": "1"}, {"size": "64"}, {"size": "64"}]}}}}}, {"name": "StatefulPartitionedCall/WeightSharedConvolutionalBoxPredictor/BoxPredictionTower/conv2d_0/separable_conv2d_1_bn_offset", "op": "Const", "attr": {"dtype": {"type": "DT_FLOAT"}, "value": {"tensor": {"dtype": "DT_FLOAT", "tensorShape": {"dim": [{"size": "64"}]}}}}}, {"name": "StatefulPartitionedCall/WeightSharedConvolutionalBoxPredictor/ClassPredictionTower/conv2d_0/separable_conv2d_1_weights", "op": "Const", "attr": {"dtype": {"type": "DT_FLOAT"}, "value": {"tensor": {"dtype": "DT_FLOAT", "tensorShape": {"dim": [{"size": "1"}, {"size": "1"}, {"size": "64"}, {"size": "64"}]}}}}}, {"name": "StatefulPartitionedCall/WeightSharedConvolutionalBoxPredictor/ClassPredictionTower/conv2d_0/separable_conv2d_1_bn_offset", "op": "Const", "attr": {"value": {"tensor": {"dtype": "DT_FLOAT", "tensorShape": {"dim": [{"size": "64"}]}}}, "dtype": {"type": "DT_FLOAT"}}}, {"name": "StatefulPartitionedCall/WeightSharedConvolutionalBoxPredictor/BoxPredictionTower/conv2d_2/separable_conv2d_weights", "op": "Const", "attr": {"dtype": {"type": "DT_FLOAT"}, "value": {"tensor": {"dtype": "DT_FLOAT", "tensorShape": {"dim": [{"size": "1"}, {"size": "1"}, {"size": "64"}, {"size": "64"}]}}}}}, {"name": "StatefulPartitionedCall/WeightSharedConvolutionalBoxPredictor/BoxPredictionTower/conv2d_2/separable_conv2d_bn_offset", "op": "Const", "attr": {"dtype": {"type": "DT_FLOAT"}, "value": {"tensor": {"dtype": "DT_FLOAT", "tensorShape": {"dim": [{"size": "64"}]}}}}}, {"name": "StatefulPartitionedCall/WeightSharedConvolutionalBoxPredictor/ClassPredictionTower/conv2d_2/separable_conv2d_weights", "op": "Const", "attr": {"value": {"tensor": {"dtype": "DT_FLOAT", "tensorShape": {"dim": [{"size": "1"}, {"size": "1"}, {"size": "64"}, {"size": "64"}]}}}, "dtype": {"type": "DT_FLOAT"}}}, {"name": "StatefulPartitionedCall/WeightSharedConvolutionalBoxPredictor/ClassPredictionTower/conv2d_2/separable_conv2d_bn_offset", "op": "Const", "attr": {"value": {"tensor": {"dtype": "DT_FLOAT", "tensorShape": {"dim": [{"size": "64"}]}}}, "dtype": {"type": "DT_FLOAT"}}}, {"name": "StatefulPartitionedCall/WeightSharedConvolutionalBoxPredictor/BoxPredictionTower/conv2d_1/separable_conv2d_1_weights", "op": "Const", "attr": {"dtype": {"type": "DT_FLOAT"}, "value": {"tensor": {"dtype": "DT_FLOAT", "tensorShape": {"dim": [{"size": "1"}, {"size": "1"}, {"size": "64"}, {"size": "64"}]}}}}}, {"name": "StatefulPartitionedCall/WeightSharedConvolutionalBoxPredictor/BoxPredictionTower/conv2d_1/separable_conv2d_1_bn_offset", "op": "Const", "attr": {"dtype": {"type": "DT_FLOAT"}, "value": {"tensor": {"dtype": "DT_FLOAT", "tensorShape": {"dim": [{"size": "64"}]}}}}}, {"name": "StatefulPartitionedCall/WeightSharedConvolutionalBoxPredictor/ClassPredictionTower/conv2d_1/separable_conv2d_1_weights", "op": "Const", "attr": {"value": {"tensor": {"dtype": "DT_FLOAT", "tensorShape": {"dim": [{"size": "1"}, {"size": "1"}, {"size": "64"}, {"size": "64"}]}}}, "dtype": {"type": "DT_FLOAT"}}}, {"name": "StatefulPartitionedCall/WeightSharedConvolutionalBoxPredictor/ClassPredictionTower/conv2d_1/separable_conv2d_1_bn_offset", "op": "Const", "attr": {"value": {"tensor": {"dtype": "DT_FLOAT", "tensorShape": {"dim": [{"size": "64"}]}}}, "dtype": {"type": "DT_FLOAT"}}}, {"name": "StatefulPartitionedCall/EfficientDet-D0/bifpn/node_23/3_up_lvl_5/post_combine/separable_conv/separable_conv2d_weights", "op": "Const", "attr": {"value": {"tensor": {"dtype": "DT_FLOAT", "tensorShape": {"dim": [{"size": "1"}, {"size": "1"}, {"size": "64"}, {"size": "64"}]}}}, "dtype": {"type": "DT_FLOAT"}}}, {"name": "StatefulPartitionedCall/EfficientDet-D0/bifpn/node_23/3_up_lvl_5/post_combine/separable_conv/separable_conv2d_bn_offset", "op": "Const", "attr": {"dtype": {"type": "DT_FLOAT"}, "value": {"tensor": {"dtype": "DT_FLOAT", "tensorShape": {"dim": [{"size": "64"}]}}}}}, {"name": "StatefulPartitionedCall/WeightSharedConvolutionalBoxPredictor/BoxPredictionTower/conv2d_0/separable_conv2d_2_weights", "op": "Const", "attr": {"value": {"tensor": {"dtype": "DT_FLOAT", "tensorShape": {"dim": [{"size": "1"}, {"size": "1"}, {"size": "64"}, {"size": "64"}]}}}, "dtype": {"type": "DT_FLOAT"}}}, {"name": "StatefulPartitionedCall/WeightSharedConvolutionalBoxPredictor/BoxPredictionTower/conv2d_0/separable_conv2d_2_bn_offset", "op": "Const", "attr": {"value": {"tensor": {"dtype": "DT_FLOAT", "tensorShape": {"dim": [{"size": "64"}]}}}, "dtype": {"type": "DT_FLOAT"}}}, {"name": "StatefulPartitionedCall/WeightSharedConvolutionalBoxPredictor/ClassPredictionTower/conv2d_0/separable_conv2d_2_weights", "op": "Const", "attr": {"dtype": {"type": "DT_FLOAT"}, "value": {"tensor": {"dtype": "DT_FLOAT", "tensorShape": {"dim": [{"size": "1"}, {"size": "1"}, {"size": "64"}, {"size": "64"}]}}}}}, {"name": "StatefulPartitionedCall/WeightSharedConvolutionalBoxPredictor/ClassPredictionTower/conv2d_0/separable_conv2d_2_bn_offset", "op": "Const", "attr": {"dtype": {"type": "DT_FLOAT"}, "value": {"tensor": {"dtype": "DT_FLOAT", "tensorShape": {"dim": [{"size": "64"}]}}}}}, {"name": "StatefulPartitionedCall/WeightSharedConvolutionalBoxPredictor/BoxPredictionTower/conv2d_2/separable_conv2d_1_weights", "op": "Const", "attr": {"value": {"tensor": {"dtype": "DT_FLOAT", "tensorShape": {"dim": [{"size": "1"}, {"size": "1"}, {"size": "64"}, {"size": "64"}]}}}, "dtype": {"type": "DT_FLOAT"}}}, {"name": "StatefulPartitionedCall/WeightSharedConvolutionalBoxPredictor/BoxPredictionTower/conv2d_2/separable_conv2d_1_bn_offset", "op": "Const", "attr": {"dtype": {"type": "DT_FLOAT"}, "value": {"tensor": {"dtype": "DT_FLOAT", "tensorShape": {"dim": [{"size": "64"}]}}}}}, {"name": "StatefulPartitionedCall/WeightSharedConvolutionalBoxPredictor/ClassPredictionTower/conv2d_2/separable_conv2d_1_weights", "op": "Const", "attr": {"dtype": {"type": "DT_FLOAT"}, "value": {"tensor": {"dtype": "DT_FLOAT", "tensorShape": {"dim": [{"size": "1"}, {"size": "1"}, {"size": "64"}, {"size": "64"}]}}}}}, {"name": "StatefulPartitionedCall/WeightSharedConvolutionalBoxPredictor/ClassPredictionTower/conv2d_2/separable_conv2d_1_bn_offset", "op": "Const", "attr": {"value": {"tensor": {"dtype": "DT_FLOAT", "tensorShape": {"dim": [{"size": "64"}]}}}, "dtype": {"type": "DT_FLOAT"}}}, {"name": "StatefulPartitionedCall/WeightSharedConvolutionalBoxPredictor/BoxPredictionTower/conv2d_1/separable_conv2d_2_weights", "op": "Const", "attr": {"value": {"tensor": {"dtype": "DT_FLOAT", "tensorShape": {"dim": [{"size": "1"}, {"size": "1"}, {"size": "64"}, {"size": "64"}]}}}, "dtype": {"type": "DT_FLOAT"}}}, {"name": "StatefulPartitionedCall/WeightSharedConvolutionalBoxPredictor/BoxPredictionTower/conv2d_1/separable_conv2d_2_bn_offset", "op": "Const", "attr": {"dtype": {"type": "DT_FLOAT"}, "value": {"tensor": {"dtype": "DT_FLOAT", "tensorShape": {"dim": [{"size": "64"}]}}}}}, {"name": "StatefulPartitionedCall/WeightSharedConvolutionalBoxPredictor/ClassPredictionTower/conv2d_1/separable_conv2d_2_weights", "op": "Const", "attr": {"dtype": {"type": "DT_FLOAT"}, "value": {"tensor": {"dtype": "DT_FLOAT", "tensorShape": {"dim": [{"size": "1"}, {"size": "1"}, {"size": "64"}, {"size": "64"}]}}}}}, {"name": "StatefulPartitionedCall/WeightSharedConvolutionalBoxPredictor/ClassPredictionTower/conv2d_1/separable_conv2d_2_bn_offset", "op": "Const", "attr": {"dtype": {"type": "DT_FLOAT"}, "value": {"tensor": {"dtype": "DT_FLOAT", "tensorShape": {"dim": [{"size": "64"}]}}}}}, {"name": "StatefulPartitionedCall/EfficientDet-D0/bifpn/node_24/3_up_lvl_6/post_combine/separable_conv/separable_conv2d_weights", "op": "Const", "attr": {"dtype": {"type": "DT_FLOAT"}, "value": {"tensor": {"dtype": "DT_FLOAT", "tensorShape": {"dim": [{"size": "1"}, {"size": "1"}, {"size": "64"}, {"size": "64"}]}}}}}, {"name": "StatefulPartitionedCall/EfficientDet-D0/bifpn/node_24/3_up_lvl_6/post_combine/separable_conv/separable_conv2d_bn_offset", "op": "Const", "attr": {"value": {"tensor": {"dtype": "DT_FLOAT", "tensorShape": {"dim": [{"size": "64"}]}}}, "dtype": {"type": "DT_FLOAT"}}}, {"name": "StatefulPartitionedCall/WeightSharedConvolutionalBoxPredictor/BoxPredictionTower/conv2d_0/separable_conv2d_3_weights", "op": "Const", "attr": {"dtype": {"type": "DT_FLOAT"}, "value": {"tensor": {"dtype": "DT_FLOAT", "tensorShape": {"dim": [{"size": "1"}, {"size": "1"}, {"size": "64"}, {"size": "64"}]}}}}}, {"name": "StatefulPartitionedCall/WeightSharedConvolutionalBoxPredictor/BoxPredictionTower/conv2d_0/separable_conv2d_3_bn_offset", "op": "Const", "attr": {"dtype": {"type": "DT_FLOAT"}, "value": {"tensor": {"dtype": "DT_FLOAT", "tensorShape": {"dim": [{"size": "64"}]}}}}}, {"name": "StatefulPartitionedCall/WeightSharedConvolutionalBoxPredictor/ClassPredictionTower/conv2d_0/separable_conv2d_3_weights", "op": "Const", "attr": {"value": {"tensor": {"dtype": "DT_FLOAT", "tensorShape": {"dim": [{"size": "1"}, {"size": "1"}, {"size": "64"}, {"size": "64"}]}}}, "dtype": {"type": "DT_FLOAT"}}}, {"name": "StatefulPartitionedCall/WeightSharedConvolutionalBoxPredictor/ClassPredictionTower/conv2d_0/separable_conv2d_3_bn_offset", "op": "Const", "attr": {"dtype": {"type": "DT_FLOAT"}, "value": {"tensor": {"dtype": "DT_FLOAT", "tensorShape": {"dim": [{"size": "64"}]}}}}}, {"name": "StatefulPartitionedCall/WeightSharedConvolutionalBoxPredictor/BoxPredictionTower/conv2d_2/separable_conv2d_2_weights", "op": "Const", "attr": {"dtype": {"type": "DT_FLOAT"}, "value": {"tensor": {"dtype": "DT_FLOAT", "tensorShape": {"dim": [{"size": "1"}, {"size": "1"}, {"size": "64"}, {"size": "64"}]}}}}}, {"name": "StatefulPartitionedCall/WeightSharedConvolutionalBoxPredictor/BoxPredictionTower/conv2d_2/separable_conv2d_2_bn_offset", "op": "Const", "attr": {"dtype": {"type": "DT_FLOAT"}, "value": {"tensor": {"dtype": "DT_FLOAT", "tensorShape": {"dim": [{"size": "64"}]}}}}}, {"name": "StatefulPartitionedCall/WeightSharedConvolutionalBoxPredictor/ClassPredictionTower/conv2d_2/separable_conv2d_2_weights", "op": "Const", "attr": {"dtype": {"type": "DT_FLOAT"}, "value": {"tensor": {"dtype": "DT_FLOAT", "tensorShape": {"dim": [{"size": "1"}, {"size": "1"}, {"size": "64"}, {"size": "64"}]}}}}}, {"name": "StatefulPartitionedCall/WeightSharedConvolutionalBoxPredictor/ClassPredictionTower/conv2d_2/separable_conv2d_2_bn_offset", "op": "Const", "attr": {"value": {"tensor": {"dtype": "DT_FLOAT", "tensorShape": {"dim": [{"size": "64"}]}}}, "dtype": {"type": "DT_FLOAT"}}}, {"name": "StatefulPartitionedCall/WeightSharedConvolutionalBoxPredictor/BoxPredictionTower/conv2d_1/separable_conv2d_3_weights", "op": "Const", "attr": {"dtype": {"type": "DT_FLOAT"}, "value": {"tensor": {"dtype": "DT_FLOAT", "tensorShape": {"dim": [{"size": "1"}, {"size": "1"}, {"size": "64"}, {"size": "64"}]}}}}}, {"name": "StatefulPartitionedCall/WeightSharedConvolutionalBoxPredictor/BoxPredictionTower/conv2d_1/separable_conv2d_3_bn_offset", "op": "Const", "attr": {"value": {"tensor": {"dtype": "DT_FLOAT", "tensorShape": {"dim": [{"size": "64"}]}}}, "dtype": {"type": "DT_FLOAT"}}}, {"name": "StatefulPartitionedCall/WeightSharedConvolutionalBoxPredictor/ClassPredictionTower/conv2d_1/separable_conv2d_3_weights", "op": "Const", "attr": {"value": {"tensor": {"dtype": "DT_FLOAT", "tensorShape": {"dim": [{"size": "1"}, {"size": "1"}, {"size": "64"}, {"size": "64"}]}}}, "dtype": {"type": "DT_FLOAT"}}}, {"name": "StatefulPartitionedCall/WeightSharedConvolutionalBoxPredictor/ClassPredictionTower/conv2d_1/separable_conv2d_3_bn_offset", "op": "Const", "attr": {"value": {"tensor": {"dtype": "DT_FLOAT", "tensorShape": {"dim": [{"size": "64"}]}}}, "dtype": {"type": "DT_FLOAT"}}}, {"name": "StatefulPartitionedCall/EfficientDet-D0/bifpn/node_25/3_up_lvl_7/post_combine/separable_conv/separable_conv2d_weights", "op": "Const", "attr": {"value": {"tensor": {"dtype": "DT_FLOAT", "tensorShape": {"dim": [{"size": "1"}, {"size": "1"}, {"size": "64"}, {"size": "64"}]}}}, "dtype": {"type": "DT_FLOAT"}}}, {"name": "StatefulPartitionedCall/EfficientDet-D0/bifpn/node_25/3_up_lvl_7/post_combine/separable_conv/separable_conv2d_bn_offset", "op": "Const", "attr": {"dtype": {"type": "DT_FLOAT"}, "value": {"tensor": {"dtype": "DT_FLOAT", "tensorShape": {"dim": [{"size": "64"}]}}}}}, {"name": "StatefulPartitionedCall/WeightSharedConvolutionalBoxPredictor/BoxPredictionTower/conv2d_0/separable_conv2d_4_weights", "op": "Const", "attr": {"dtype": {"type": "DT_FLOAT"}, "value": {"tensor": {"dtype": "DT_FLOAT", "tensorShape": {"dim": [{"size": "1"}, {"size": "1"}, {"size": "64"}, {"size": "64"}]}}}}}, {"name": "StatefulPartitionedCall/WeightSharedConvolutionalBoxPredictor/BoxPredictionTower/conv2d_0/separable_conv2d_4_bn_offset", "op": "Const", "attr": {"dtype": {"type": "DT_FLOAT"}, "value": {"tensor": {"dtype": "DT_FLOAT", "tensorShape": {"dim": [{"size": "64"}]}}}}}, {"name": "StatefulPartitionedCall/WeightSharedConvolutionalBoxPredictor/ClassPredictionTower/conv2d_0/separable_conv2d_4_weights", "op": "Const", "attr": {"dtype": {"type": "DT_FLOAT"}, "value": {"tensor": {"dtype": "DT_FLOAT", "tensorShape": {"dim": [{"size": "1"}, {"size": "1"}, {"size": "64"}, {"size": "64"}]}}}}}, {"name": "StatefulPartitionedCall/WeightSharedConvolutionalBoxPredictor/ClassPredictionTower/conv2d_0/separable_conv2d_4_bn_offset", "op": "Const", "attr": {"dtype": {"type": "DT_FLOAT"}, "value": {"tensor": {"dtype": "DT_FLOAT", "tensorShape": {"dim": [{"size": "64"}]}}}}}, {"name": "StatefulPartitionedCall/WeightSharedConvolutionalBoxPredictor/BoxPredictionTower/conv2d_2/separable_conv2d_3_weights", "op": "Const", "attr": {"value": {"tensor": {"dtype": "DT_FLOAT", "tensorShape": {"dim": [{"size": "1"}, {"size": "1"}, {"size": "64"}, {"size": "64"}]}}}, "dtype": {"type": "DT_FLOAT"}}}, {"name": "StatefulPartitionedCall/WeightSharedConvolutionalBoxPredictor/BoxPredictionTower/conv2d_2/separable_conv2d_3_bn_offset", "op": "Const", "attr": {"value": {"tensor": {"dtype": "DT_FLOAT", "tensorShape": {"dim": [{"size": "64"}]}}}, "dtype": {"type": "DT_FLOAT"}}}, {"name": "StatefulPartitionedCall/WeightSharedConvolutionalBoxPredictor/ClassPredictionTower/conv2d_2/separable_conv2d_3_weights", "op": "Const", "attr": {"dtype": {"type": "DT_FLOAT"}, "value": {"tensor": {"dtype": "DT_FLOAT", "tensorShape": {"dim": [{"size": "1"}, {"size": "1"}, {"size": "64"}, {"size": "64"}]}}}}}, {"name": "StatefulPartitionedCall/WeightSharedConvolutionalBoxPredictor/ClassPredictionTower/conv2d_2/separable_conv2d_3_bn_offset", "op": "Const", "attr": {"dtype": {"type": "DT_FLOAT"}, "value": {"tensor": {"dtype": "DT_FLOAT", "tensorShape": {"dim": [{"size": "64"}]}}}}}, {"name": "StatefulPartitionedCall/WeightSharedConvolutionalBoxPredictor/BoxPredictionTower/conv2d_1/separable_conv2d_4_weights", "op": "Const", "attr": {"dtype": {"type": "DT_FLOAT"}, "value": {"tensor": {"dtype": "DT_FLOAT", "tensorShape": {"dim": [{"size": "1"}, {"size": "1"}, {"size": "64"}, {"size": "64"}]}}}}}, {"name": "StatefulPartitionedCall/WeightSharedConvolutionalBoxPredictor/BoxPredictionTower/conv2d_1/separable_conv2d_4_bn_offset", "op": "Const", "attr": {"value": {"tensor": {"dtype": "DT_FLOAT", "tensorShape": {"dim": [{"size": "64"}]}}}, "dtype": {"type": "DT_FLOAT"}}}, {"name": "StatefulPartitionedCall/WeightSharedConvolutionalBoxPredictor/ClassPredictionTower/conv2d_1/separable_conv2d_4_weights", "op": "Const", "attr": {"value": {"tensor": {"dtype": "DT_FLOAT", "tensorShape": {"dim": [{"size": "1"}, {"size": "1"}, {"size": "64"}, {"size": "64"}]}}}, "dtype": {"type": "DT_FLOAT"}}}, {"name": "StatefulPartitionedCall/WeightSharedConvolutionalBoxPredictor/ClassPredictionTower/conv2d_1/separable_conv2d_4_bn_offset", "op": "Const", "attr": {"value": {"tensor": {"dtype": "DT_FLOAT", "tensorShape": {"dim": [{"size": "64"}]}}}, "dtype": {"type": "DT_FLOAT"}}}, {"name": "StatefulPartitionedCall/WeightSharedConvolutionalBoxPredictor/BoxPredictionTower/conv2d_2/separable_conv2d_4_weights", "op": "Const", "attr": {"dtype": {"type": "DT_FLOAT"}, "value": {"tensor": {"dtype": "DT_FLOAT", "tensorShape": {"dim": [{"size": "1"}, {"size": "1"}, {"size": "64"}, {"size": "64"}]}}}}}, {"name": "StatefulPartitionedCall/WeightSharedConvolutionalBoxPredictor/BoxPredictionTower/conv2d_2/separable_conv2d_4_bn_offset", "op": "Const", "attr": {"dtype": {"type": "DT_FLOAT"}, "value": {"tensor": {"dtype": "DT_FLOAT", "tensorShape": {"dim": [{"size": "64"}]}}}}}, {"name": "StatefulPartitionedCall/WeightSharedConvolutionalBoxPredictor/ClassPredictionTower/conv2d_2/separable_conv2d_4_weights", "op": "Const", "attr": {"value": {"tensor": {"dtype": "DT_FLOAT", "tensorShape": {"dim": [{"size": "1"}, {"size": "1"}, {"size": "64"}, {"size": "64"}]}}}, "dtype": {"type": "DT_FLOAT"}}}, {"name": "StatefulPartitionedCall/WeightSharedConvolutionalBoxPredictor/ClassPredictionTower/conv2d_2/separable_conv2d_4_bn_offset", "op": "Const", "attr": {"dtype": {"type": "DT_FLOAT"}, "value": {"tensor": {"dtype": "DT_FLOAT", "tensorShape": {"dim": [{"size": "64"}]}}}}}, {"name": "StatefulPartitionedCall/Postprocessor/BatchMultiClassNonMaxSuppression/Reshape_3", "op": "Const", "input": ["^input_tensor"], "attr": {"value": {"tensor": {"dtype": "DT_FLOAT", "tensorShape": {"dim": [{"size": "49104"}]}}}, "dtype": {"type": "DT_FLOAT"}}}, {"name": "StatefulPartitionedCall/Postprocessor/BatchMultiClassNonMaxSuppression/PadOrClipBoxList/sub_3/x", "op": "Const", "input": ["^input_tensor"], "attr": {"value": {"tensor": {"dtype": "DT_INT32", "tensorShape": {}}}, "dtype": {"type": "DT_INT32"}}}, {"name": "StatefulPartitionedCall/Postprocessor/BatchMultiClassNonMaxSuppression/MultiClassNonMaxSuppression/Concatenate/concat_5", "op": "Const", "input": ["^input_tensor"], "attr": {"dtype": {"type": "DT_FLOAT"}, "value": {"tensor": {"dtype": "DT_FLOAT", "tensorShape": {"dim": [{"size": "1200"}]}}}}}, {"name": "StatefulPartitionedCall/Postprocessor/BatchMultiClassNonMaxSuppression/PadOrClipBoxList/sub_17/x", "op": "Const", "input": ["^input_tensor"], "attr": {"value": {"tensor": {"dtype": "DT_INT32", "tensorShape": {}}}, "dtype": {"type": "DT_INT32"}}}, {"name": "StatefulPartitionedCall/Postprocessor/BatchMultiClassNonMaxSuppression/MultiClassNonMaxSuppression/mul_12/x", "op": "Const", "input": ["^input_tensor"], "attr": {"value": {"tensor": {"dtype": "DT_FLOAT", "tensorShape": {}}}, "dtype": {"type": "DT_FLOAT"}}}, {"name": "StatefulPartitionedCall/Postprocessor/BatchMultiClassNonMaxSuppression/MultiClassNonMaxSuppression/range", "op": "Const", "input": ["^input_tensor"], "attr": {"dtype": {"type": "DT_INT32"}, "value": {"tensor": {"dtype": "DT_INT32", "tensorShape": {"dim": [{"size": "100"}]}}}}}, {"name": "StatefulPartitionedCall/Postprocessor/BatchMultiClassNonMaxSuppression/MultiClassNonMaxSuppression/mul", "op": "Const", "input": ["^input_tensor"], "attr": {"value": {"tensor": {"dtype": "DT_FLOAT", "tensorShape": {"dim": [{"size": "100"}]}}}, "dtype": {"type": "DT_FLOAT"}}}, {"name": "StatefulPartitionedCall/Postprocessor/BatchMultiClassNonMaxSuppression/MultiClassNonMaxSuppression/Slice_1/begin", "op": "Const", "input": ["^input_tensor"], "attr": {"dtype": {"type": "DT_INT32"}, "value": {"tensor": {"dtype": "DT_INT32", "tensorShape": {"dim": [{"size": "2"}]}}}}}, {"name": "StatefulPartitionedCall/Postprocessor/BatchMultiClassNonMaxSuppression/MultiClassNonMaxSuppression/Slice_2/begin", "op": "Const", "input": ["^input_tensor"], "attr": {"value": {"tensor": {"dtype": "DT_INT32", "tensorShape": {"dim": [{"size": "2"}]}}}, "dtype": {"type": "DT_INT32"}}}, {"name": "StatefulPartitionedCall/Postprocessor/BatchMultiClassNonMaxSuppression/MultiClassNonMaxSuppression/Slice_3/begin", "op": "Const", "input": ["^input_tensor"], "attr": {"dtype": {"type": "DT_INT32"}, "value": {"tensor": {"dtype": "DT_INT32", "tensorShape": {"dim": [{"size": "2"}]}}}}}, {"name": "StatefulPartitionedCall/Postprocessor/BatchMultiClassNonMaxSuppression/MultiClassNonMaxSuppression/Slice_4/begin", "op": "Const", "input": ["^input_tensor"], "attr": {"value": {"tensor": {"dtype": "DT_INT32", "tensorShape": {"dim": [{"size": "2"}]}}}, "dtype": {"type": "DT_INT32"}}}, {"name": "StatefulPartitionedCall/Postprocessor/BatchMultiClassNonMaxSuppression/MultiClassNonMaxSuppression/Slice_5/begin", "op": "Const", "input": ["^input_tensor"], "attr": {"value": {"tensor": {"dtype": "DT_INT32", "tensorShape": {"dim": [{"size": "2"}]}}}, "dtype": {"type": "DT_INT32"}}}, {"name": "StatefulPartitionedCall/Postprocessor/BatchMultiClassNonMaxSuppression/MultiClassNonMaxSuppression/Slice_6/begin", "op": "Const", "input": ["^input_tensor"], "attr": {"value": {"tensor": {"dtype": "DT_INT32", "tensorShape": {"dim": [{"size": "2"}]}}}, "dtype": {"type": "DT_INT32"}}}, {"name": "StatefulPartitionedCall/Postprocessor/BatchMultiClassNonMaxSuppression/MultiClassNonMaxSuppression/Slice_7/begin", "op": "Const", "input": ["^input_tensor"], "attr": {"value": {"tensor": {"dtype": "DT_INT32", "tensorShape": {"dim": [{"size": "2"}]}}}, "dtype": {"type": "DT_INT32"}}}, {"name": "StatefulPartitionedCall/Postprocessor/BatchMultiClassNonMaxSuppression/MultiClassNonMaxSuppression/Slice_8/begin", "op": "Const", "input": ["^input_tensor"], "attr": {"dtype": {"type": "DT_INT32"}, "value": {"tensor": {"dtype": "DT_INT32", "tensorShape": {"dim": [{"size": "2"}]}}}}}, {"name": "StatefulPartitionedCall/Postprocessor/BatchMultiClassNonMaxSuppression/MultiClassNonMaxSuppression/Slice_9/begin", "op": "Const", "input": ["^input_tensor"], "attr": {"value": {"tensor": {"dtype": "DT_INT32", "tensorShape": {"dim": [{"size": "2"}]}}}, "dtype": {"type": "DT_INT32"}}}, {"name": "StatefulPartitionedCall/Postprocessor/BatchMultiClassNonMaxSuppression/MultiClassNonMaxSuppression/Slice_10/begin", "op": "Const", "input": ["^input_tensor"], "attr": {"value": {"tensor": {"dtype": "DT_INT32", "tensorShape": {"dim": [{"size": "2"}]}}}, "dtype": {"type": "DT_INT32"}}}, {"name": "StatefulPartitionedCall/Postprocessor/Decode/get_center_coordinates_and_sizes/add", "op": "Const", "input": ["^input_tensor"], "attr": {"value": {"tensor": {"dtype": "DT_FLOAT", "tensorShape": {"dim": [{"size": "49104"}]}}}, "dtype": {"type": "DT_FLOAT"}}}, {"name": "StatefulPartitionedCall/Postprocessor/Decode/truediv", "op": "Const", "input": ["^input_tensor"], "attr": {"dtype": {"type": "DT_FLOAT"}, "value": {"tensor": {"dtype": "DT_FLOAT", "tensorShape": {"dim": [{"size": "49104"}]}}}}}, {"name": "StatefulPartitionedCall/Postprocessor/Decode/mul_1", "op": "Const", "input": ["^input_tensor"], "attr": {"value": {"tensor": {"dtype": "DT_FLOAT", "tensorShape": {"dim": [{"size": "49104"}]}}}, "dtype": {"type": "DT_FLOAT"}}}, {"name": "StatefulPartitionedCall/Postprocessor/Decode/get_center_coordinates_and_sizes/add_1", "op": "Const", "input": ["^input_tensor"], "attr": {"dtype": {"type": "DT_FLOAT"}, "value": {"tensor": {"dtype": "DT_FLOAT", "tensorShape": {"dim": [{"size": "49104"}]}}}}}, {"name": "StatefulPartitionedCall/Postprocessor/Decode/truediv_1", "op": "Const", "input": ["^input_tensor"], "attr": {"value": {"tensor": {"dtype": "DT_FLOAT", "tensorShape": {"dim": [{"size": "49104"}]}}}, "dtype": {"type": "DT_FLOAT"}}}, {"name": "ConstantFolding/StatefulPartitionedCall/Postprocessor/Decode/truediv_2_recip", "op": "Const", "input": ["^input_tensor"], "attr": {"dtype": {"type": "DT_FLOAT"}, "value": {"tensor": {"dtype": "DT_FLOAT", "tensorShape": {}}}}}, {"name": "StatefulPartitionedCall/WeightSharedConvolutionalBoxPredictor/BoxPredictionTower/conv2d_0/separable_conv2d/ReadVariableOp", "op": "Const", "input": ["^input_tensor"], "attr": {"value": {"tensor": {"dtype": "DT_FLOAT", "tensorShape": {"dim": [{"size": "3"}, {"size": "3"}, {"size": "64"}, {"size": "1"}]}}}, "dtype": {"type": "DT_FLOAT"}}}, {"name": "StatefulPartitionedCall/WeightSharedConvolutionalBoxPredictor/BoxPredictionTower/conv2d_1/separable_conv2d/ReadVariableOp", "op": "Const", "input": ["^input_tensor"], "attr": {"value": {"tensor": {"dtype": "DT_FLOAT", "tensorShape": {"dim": [{"size": "3"}, {"size": "3"}, {"size": "64"}, {"size": "1"}]}}}, "dtype": {"type": "DT_FLOAT"}}}, {"name": "StatefulPartitionedCall/WeightSharedConvolutionalBoxPredictor/BoxPredictionTower/conv2d_2/separable_conv2d/ReadVariableOp", "op": "Const", "input": ["^input_tensor"], "attr": {"value": {"tensor": {"dtype": "DT_FLOAT", "tensorShape": {"dim": [{"size": "3"}, {"size": "3"}, {"size": "64"}, {"size": "1"}]}}}, "dtype": {"type": "DT_FLOAT"}}}, {"name": "StatefulPartitionedCall/WeightSharedConvolutionalBoxPredictor/WeightSharedConvolutionalBoxHead/BoxPredictor/separable_conv2d/ReadVariableOp", "op": "Const", "input": ["^input_tensor"], "attr": {"value": {"tensor": {"dtype": "DT_FLOAT", "tensorShape": {"dim": [{"size": "3"}, {"size": "3"}, {"size": "64"}, {"size": "1"}]}}}, "dtype": {"type": "DT_FLOAT"}}}, {"name": "StatefulPartitionedCall/WeightSharedConvolutionalBoxPredictor/WeightSharedConvolutionalBoxHead/BoxPredictor/separable_conv2d/ReadVariableOp_1", "op": "Const", "input": ["^input_tensor"], "attr": {"value": {"tensor": {"dtype": "DT_FLOAT", "tensorShape": {"dim": [{"size": "1"}, {"size": "1"}, {"size": "64"}, {"size": "36"}]}}}, "dtype": {"type": "DT_FLOAT"}}}, {"name": "StatefulPartitionedCall/WeightSharedConvolutionalBoxPredictor/WeightSharedConvolutionalBoxHead/BoxPredictor/BiasAdd/ReadVariableOp", "op": "Const", "input": ["^input_tensor"], "attr": {"value": {"tensor": {"dtype": "DT_FLOAT", "tensorShape": {"dim": [{"size": "36"}]}}}, "dtype": {"type": "DT_FLOAT"}}}, {"name": "StatefulPartitionedCall/WeightSharedConvolutionalBoxPredictor/WeightSharedConvolutionalBoxHead/Reshape/shape", "op": "Const", "input": ["^input_tensor"], "attr": {"value": {"tensor": {"dtype": "DT_INT32", "tensorShape": {"dim": [{"size": "3"}]}}}, "dtype": {"type": "DT_INT32"}}}, {"name": "StatefulPartitionedCall/Postprocessor/Reshape_1/shape", "op": "Const", "input": ["^input_tensor"], "attr": {"dtype": {"type": "DT_INT32"}, "value": {"tensor": {"dtype": "DT_INT32", "tensorShape": {"dim": [{"size": "2"}]}}}}}, {"name": "StatefulPartitionedCall/Postprocessor/Decode/mul", "op": "Const", "input": ["^input_tensor"], "attr": {"value": {"tensor": {"dtype": "DT_FLOAT", "tensorShape": {"dim": [{"size": "49104"}]}}}, "dtype": {"type": "DT_FLOAT"}}}, {"name": "StatefulPartitionedCall/Postprocessor/Decode/transpose/perm", "op": "Const", "input": ["^input_tensor"], "attr": {"dtype": {"type": "DT_INT32"}, "value": {"tensor": {"dtype": "DT_INT32", "tensorShape": {"dim": [{"size": "2"}]}}}}}, {"name": "StatefulPartitionedCall/Postprocessor/stack", "op": "Const", "input": ["^input_tensor"], "attr": {"value": {"tensor": {"dtype": "DT_INT32", "tensorShape": {"dim": [{"size": "3"}]}}}, "dtype": {"type": "DT_INT32"}}}, {"name": "StatefulPartitionedCall/Postprocessor/ExpandDims_1/dim", "op": "Const", "input": ["^input_tensor"], "attr": {"value": {"tensor": {"dtype": "DT_INT32", "tensorShape": {}}}, "dtype": {"type": "DT_INT32"}}}, {"name": "StatefulPartitionedCall/map/TensorArrayV2Stack/TensorListStack/element_shape", "op": "Const", "input": ["^input_tensor"], "attr": {"value": {"tensor": {"dtype": "DT_INT32", "tensorShape": {"dim": [{"size": "3"}]}}}, "dtype": {"type": "DT_INT32"}}}, {"name": "StatefulPartitionedCall/EfficientDet-D0/model/stack_0/block_0/se_reshape/Reshape/shape", "op": "Const", "input": ["^input_tensor"], "attr": {"dtype": {"type": "DT_INT32"}, "value": {"tensor": {"dtype": "DT_INT32", "tensorShape": {"dim": [{"size": "4"}]}}}}}, {"name": "StatefulPartitionedCall/EfficientDet-D0/model/stack_0/block_0/se_reduce_conv2d/Conv2D/ReadVariableOp", "op": "Const", "input": ["^input_tensor"], "attr": {"dtype": {"type": "DT_FLOAT"}, "value": {"tensor": {"dtype": "DT_FLOAT", "tensorShape": {"dim": [{"size": "1"}, {"size": "1"}, {"size": "32"}, {"size": "8"}]}}}}}, {"name": "StatefulPartitionedCall/EfficientDet-D0/model/stack_0/block_0/se_reduce_conv2d/BiasAdd/ReadVariableOp", "op": "Const", "input": ["^input_tensor"], "attr": {"value": {"tensor": {"dtype": "DT_FLOAT", "tensorShape": {"dim": [{"size": "8"}]}}}, "dtype": {"type": "DT_FLOAT"}}}, {"name": "StatefulPartitionedCall/EfficientDet-D0/model/stack_0/block_0/se_expand_conv2d/Conv2D/ReadVariableOp", "op": "Const", "input": ["^input_tensor"], "attr": {"dtype": {"type": "DT_FLOAT"}, "value": {"tensor": {"dtype": "DT_FLOAT", "tensorShape": {"dim": [{"size": "1"}, {"size": "1"}, {"size": "8"}, {"size": "32"}]}}}}}, {"name": "StatefulPartitionedCall/EfficientDet-D0/model/stack_0/block_0/se_expand_conv2d/BiasAdd/ReadVariableOp", "op": "Const", "input": ["^input_tensor"], "attr": {"dtype": {"type": "DT_FLOAT"}, "value": {"tensor": {"dtype": "DT_FLOAT", "tensorShape": {"dim": [{"size": "32"}]}}}}}, {"name": "StatefulPartitionedCall/EfficientDet-D0/model/stack_1/block_0/se_reshape/Reshape/shape", "op": "Const", "input": ["^input_tensor"], "attr": {"dtype": {"type": "DT_INT32"}, "value": {"tensor": {"dtype": "DT_INT32", "tensorShape": {"dim": [{"size": "4"}]}}}}}, {"name": "StatefulPartitionedCall/EfficientDet-D0/model/stack_1/block_0/se_reduce_conv2d/Conv2D/ReadVariableOp", "op": "Const", "input": ["^input_tensor"], "attr": {"dtype": {"type": "DT_FLOAT"}, "value": {"tensor": {"dtype": "DT_FLOAT", "tensorShape": {"dim": [{"size": "1"}, {"size": "1"}, {"size": "96"}, {"size": "4"}]}}}}}, {"name": "StatefulPartitionedCall/EfficientDet-D0/model/stack_1/block_0/se_reduce_conv2d/BiasAdd/ReadVariableOp", "op": "Const", "input": ["^input_tensor"], "attr": {"value": {"tensor": {"dtype": "DT_FLOAT", "tensorShape": {"dim": [{"size": "4"}]}}}, "dtype": {"type": "DT_FLOAT"}}}, {"name": "StatefulPartitionedCall/EfficientDet-D0/model/stack_1/block_0/se_expand_conv2d/Conv2D/ReadVariableOp", "op": "Const", "input": ["^input_tensor"], "attr": {"value": {"tensor": {"dtype": "DT_FLOAT", "tensorShape": {"dim": [{"size": "1"}, {"size": "1"}, {"size": "4"}, {"size": "96"}]}}}, "dtype": {"type": "DT_FLOAT"}}}, {"name": "StatefulPartitionedCall/EfficientDet-D0/model/stack_1/block_0/se_expand_conv2d/BiasAdd/ReadVariableOp", "op": "Const", "input": ["^input_tensor"], "attr": {"dtype": {"type": "DT_FLOAT"}, "value": {"tensor": {"dtype": "DT_FLOAT", "tensorShape": {"dim": [{"size": "96"}]}}}}}, {"name": "StatefulPartitionedCall/EfficientDet-D0/model/stack_1/block_1/se_reduce_conv2d/Conv2D/ReadVariableOp", "op": "Const", "input": ["^input_tensor"], "attr": {"dtype": {"type": "DT_FLOAT"}, "value": {"tensor": {"dtype": "DT_FLOAT", "tensorShape": {"dim": [{"size": "1"}, {"size": "1"}, {"size": "144"}, {"size": "6"}]}}}}}, {"name": "StatefulPartitionedCall/EfficientDet-D0/model/stack_1/block_1/se_reduce_conv2d/BiasAdd/ReadVariableOp", "op": "Const", "input": ["^input_tensor"], "attr": {"dtype": {"type": "DT_FLOAT"}, "value": {"tensor": {"dtype": "DT_FLOAT", "tensorShape": {"dim": [{"size": "6"}]}}}}}, {"name": "StatefulPartitionedCall/EfficientDet-D0/model/stack_1/block_1/se_expand_conv2d/Conv2D/ReadVariableOp", "op": "Const", "input": ["^input_tensor"], "attr": {"dtype": {"type": "DT_FLOAT"}, "value": {"tensor": {"dtype": "DT_FLOAT", "tensorShape": {"dim": [{"size": "1"}, {"size": "1"}, {"size": "6"}, {"size": "144"}]}}}}}, {"name": "StatefulPartitionedCall/EfficientDet-D0/model/stack_1/block_1/se_expand_conv2d/BiasAdd/ReadVariableOp", "op": "Const", "input": ["^input_tensor"], "attr": {"dtype": {"type": "DT_FLOAT"}, "value": {"tensor": {"dtype": "DT_FLOAT", "tensorShape": {"dim": [{"size": "144"}]}}}}}, {"name": "StatefulPartitionedCall/EfficientDet-D0/model/stack_1/block_1/se_reshape/Reshape/shape", "op": "Const", "input": ["^input_tensor"], "attr": {"dtype": {"type": "DT_INT32"}, "value": {"tensor": {"dtype": "DT_INT32", "tensorShape": {"dim": [{"size": "4"}]}}}}}, {"name": "StatefulPartitionedCall/EfficientDet-D0/model/stack_2/block_0/se_reduce_conv2d/Conv2D/ReadVariableOp", "op": "Const", "input": ["^input_tensor"], "attr": {"dtype": {"type": "DT_FLOAT"}, "value": {"tensor": {"dtype": "DT_FLOAT", "tensorShape": {"dim": [{"size": "1"}, {"size": "1"}, {"size": "144"}, {"size": "6"}]}}}}}, {"name": "StatefulPartitionedCall/EfficientDet-D0/model/stack_2/block_0/se_reduce_conv2d/BiasAdd/ReadVariableOp", "op": "Const", "input": ["^input_tensor"], "attr": {"value": {"tensor": {"dtype": "DT_FLOAT", "tensorShape": {"dim": [{"size": "6"}]}}}, "dtype": {"type": "DT_FLOAT"}}}, {"name": "StatefulPartitionedCall/EfficientDet-D0/model/stack_2/block_0/se_expand_conv2d/Conv2D/ReadVariableOp", "op": "Const", "input": ["^input_tensor"], "attr": {"dtype": {"type": "DT_FLOAT"}, "value": {"tensor": {"dtype": "DT_FLOAT", "tensorShape": {"dim": [{"size": "1"}, {"size": "1"}, {"size": "6"}, {"size": "144"}]}}}}}, {"name": "StatefulPartitionedCall/EfficientDet-D0/model/stack_2/block_0/se_expand_conv2d/BiasAdd/ReadVariableOp", "op": "Const", "input": ["^input_tensor"], "attr": {"dtype": {"type": "DT_FLOAT"}, "value": {"tensor": {"dtype": "DT_FLOAT", "tensorShape": {"dim": [{"size": "144"}]}}}}}, {"name": "StatefulPartitionedCall/EfficientDet-D0/model/stack_2/block_1/se_reduce_conv2d/Conv2D/ReadVariableOp", "op": "Const", "input": ["^input_tensor"], "attr": {"value": {"tensor": {"dtype": "DT_FLOAT", "tensorShape": {"dim": [{"size": "1"}, {"size": "1"}, {"size": "240"}, {"size": "10"}]}}}, "dtype": {"type": "DT_FLOAT"}}}, {"name": "StatefulPartitionedCall/EfficientDet-D0/model/stack_2/block_1/se_reduce_conv2d/BiasAdd/ReadVariableOp", "op": "Const", "input": ["^input_tensor"], "attr": {"dtype": {"type": "DT_FLOAT"}, "value": {"tensor": {"dtype": "DT_FLOAT", "tensorShape": {"dim": [{"size": "10"}]}}}}}, {"name": "StatefulPartitionedCall/EfficientDet-D0/model/stack_2/block_1/se_expand_conv2d/Conv2D/ReadVariableOp", "op": "Const", "input": ["^input_tensor"], "attr": {"value": {"tensor": {"dtype": "DT_FLOAT", "tensorShape": {"dim": [{"size": "1"}, {"size": "1"}, {"size": "10"}, {"size": "240"}]}}}, "dtype": {"type": "DT_FLOAT"}}}, {"name": "StatefulPartitionedCall/EfficientDet-D0/model/stack_2/block_1/se_expand_conv2d/BiasAdd/ReadVariableOp", "op": "Const", "input": ["^input_tensor"], "attr": {"dtype": {"type": "DT_FLOAT"}, "value": {"tensor": {"dtype": "DT_FLOAT", "tensorShape": {"dim": [{"size": "240"}]}}}}}, {"name": "StatefulPartitionedCall/EfficientDet-D0/model/stack_2/block_1/se_reshape/Reshape/shape", "op": "Const", "input": ["^input_tensor"], "attr": {"dtype": {"type": "DT_INT32"}, "value": {"tensor": {"dtype": "DT_INT32", "tensorShape": {"dim": [{"size": "4"}]}}}}}, {"name": "StatefulPartitionedCall/EfficientDet-D0/model/stack_3/block_0/se_reduce_conv2d/Conv2D/ReadVariableOp", "op": "Const", "input": ["^input_tensor"], "attr": {"dtype": {"type": "DT_FLOAT"}, "value": {"tensor": {"dtype": "DT_FLOAT", "tensorShape": {"dim": [{"size": "1"}, {"size": "1"}, {"size": "240"}, {"size": "10"}]}}}}}, {"name": "StatefulPartitionedCall/EfficientDet-D0/model/stack_3/block_0/se_reduce_conv2d/BiasAdd/ReadVariableOp", "op": "Const", "input": ["^input_tensor"], "attr": {"value": {"tensor": {"dtype": "DT_FLOAT", "tensorShape": {"dim": [{"size": "10"}]}}}, "dtype": {"type": "DT_FLOAT"}}}, {"name": "StatefulPartitionedCall/EfficientDet-D0/model/stack_3/block_0/se_expand_conv2d/Conv2D/ReadVariableOp", "op": "Const", "input": ["^input_tensor"], "attr": {"dtype": {"type": "DT_FLOAT"}, "value": {"tensor": {"dtype": "DT_FLOAT", "tensorShape": {"dim": [{"size": "1"}, {"size": "1"}, {"size": "10"}, {"size": "240"}]}}}}}, {"name": "StatefulPartitionedCall/EfficientDet-D0/model/stack_3/block_0/se_expand_conv2d/BiasAdd/ReadVariableOp", "op": "Const", "input": ["^input_tensor"], "attr": {"value": {"tensor": {"dtype": "DT_FLOAT", "tensorShape": {"dim": [{"size": "240"}]}}}, "dtype": {"type": "DT_FLOAT"}}}, {"name": "StatefulPartitionedCall/EfficientDet-D0/model/stack_3/block_1/se_reduce_conv2d/Conv2D/ReadVariableOp", "op": "Const", "input": ["^input_tensor"], "attr": {"dtype": {"type": "DT_FLOAT"}, "value": {"tensor": {"dtype": "DT_FLOAT", "tensorShape": {"dim": [{"size": "1"}, {"size": "1"}, {"size": "480"}, {"size": "20"}]}}}}}, {"name": "StatefulPartitionedCall/EfficientDet-D0/model/stack_3/block_1/se_reduce_conv2d/BiasAdd/ReadVariableOp", "op": "Const", "input": ["^input_tensor"], "attr": {"dtype": {"type": "DT_FLOAT"}, "value": {"tensor": {"dtype": "DT_FLOAT", "tensorShape": {"dim": [{"size": "20"}]}}}}}, {"name": "StatefulPartitionedCall/EfficientDet-D0/model/stack_3/block_1/se_expand_conv2d/Conv2D/ReadVariableOp", "op": "Const", "input": ["^input_tensor"], "attr": {"value": {"tensor": {"dtype": "DT_FLOAT", "tensorShape": {"dim": [{"size": "1"}, {"size": "1"}, {"size": "20"}, {"size": "480"}]}}}, "dtype": {"type": "DT_FLOAT"}}}, {"name": "StatefulPartitionedCall/EfficientDet-D0/model/stack_3/block_1/se_expand_conv2d/BiasAdd/ReadVariableOp", "op": "Const", "input": ["^input_tensor"], "attr": {"value": {"tensor": {"dtype": "DT_FLOAT", "tensorShape": {"dim": [{"size": "480"}]}}}, "dtype": {"type": "DT_FLOAT"}}}, {"name": "StatefulPartitionedCall/EfficientDet-D0/model/stack_3/block_2/se_reduce_conv2d/Conv2D/ReadVariableOp", "op": "Const", "input": ["^input_tensor"], "attr": {"value": {"tensor": {"dtype": "DT_FLOAT", "tensorShape": {"dim": [{"size": "1"}, {"size": "1"}, {"size": "480"}, {"size": "20"}]}}}, "dtype": {"type": "DT_FLOAT"}}}, {"name": "StatefulPartitionedCall/EfficientDet-D0/model/stack_3/block_2/se_reduce_conv2d/BiasAdd/ReadVariableOp", "op": "Const", "input": ["^input_tensor"], "attr": {"value": {"tensor": {"dtype": "DT_FLOAT", "tensorShape": {"dim": [{"size": "20"}]}}}, "dtype": {"type": "DT_FLOAT"}}}, {"name": "StatefulPartitionedCall/EfficientDet-D0/model/stack_3/block_2/se_expand_conv2d/Conv2D/ReadVariableOp", "op": "Const", "input": ["^input_tensor"], "attr": {"value": {"tensor": {"dtype": "DT_FLOAT", "tensorShape": {"dim": [{"size": "1"}, {"size": "1"}, {"size": "20"}, {"size": "480"}]}}}, "dtype": {"type": "DT_FLOAT"}}}, {"name": "StatefulPartitionedCall/EfficientDet-D0/model/stack_3/block_2/se_expand_conv2d/BiasAdd/ReadVariableOp", "op": "Const", "input": ["^input_tensor"], "attr": {"dtype": {"type": "DT_FLOAT"}, "value": {"tensor": {"dtype": "DT_FLOAT", "tensorShape": {"dim": [{"size": "480"}]}}}}}, {"name": "StatefulPartitionedCall/EfficientDet-D0/model/stack_3/block_2/se_reshape/Reshape/shape", "op": "Const", "input": ["^input_tensor"], "attr": {"value": {"tensor": {"dtype": "DT_INT32", "tensorShape": {"dim": [{"size": "4"}]}}}, "dtype": {"type": "DT_INT32"}}}, {"name": "StatefulPartitionedCall/EfficientDet-D0/model/stack_4/block_0/se_reduce_conv2d/Conv2D/ReadVariableOp", "op": "Const", "input": ["^input_tensor"], "attr": {"value": {"tensor": {"dtype": "DT_FLOAT", "tensorShape": {"dim": [{"size": "1"}, {"size": "1"}, {"size": "480"}, {"size": "20"}]}}}, "dtype": {"type": "DT_FLOAT"}}}, {"name": "StatefulPartitionedCall/EfficientDet-D0/model/stack_4/block_0/se_reduce_conv2d/BiasAdd/ReadVariableOp", "op": "Const", "input": ["^input_tensor"], "attr": {"value": {"tensor": {"dtype": "DT_FLOAT", "tensorShape": {"dim": [{"size": "20"}]}}}, "dtype": {"type": "DT_FLOAT"}}}, {"name": "StatefulPartitionedCall/EfficientDet-D0/model/stack_4/block_0/se_expand_conv2d/Conv2D/ReadVariableOp", "op": "Const", "input": ["^input_tensor"], "attr": {"value": {"tensor": {"dtype": "DT_FLOAT", "tensorShape": {"dim": [{"size": "1"}, {"size": "1"}, {"size": "20"}, {"size": "480"}]}}}, "dtype": {"type": "DT_FLOAT"}}}, {"name": "StatefulPartitionedCall/EfficientDet-D0/model/stack_4/block_0/se_expand_conv2d/BiasAdd/ReadVariableOp", "op": "Const", "input": ["^input_tensor"], "attr": {"value": {"tensor": {"dtype": "DT_FLOAT", "tensorShape": {"dim": [{"size": "480"}]}}}, "dtype": {"type": "DT_FLOAT"}}}, {"name": "StatefulPartitionedCall/EfficientDet-D0/model/stack_4/block_1/se_reduce_conv2d/Conv2D/ReadVariableOp", "op": "Const", "input": ["^input_tensor"], "attr": {"dtype": {"type": "DT_FLOAT"}, "value": {"tensor": {"dtype": "DT_FLOAT", "tensorShape": {"dim": [{"size": "1"}, {"size": "1"}, {"size": "672"}, {"size": "28"}]}}}}}, {"name": "StatefulPartitionedCall/EfficientDet-D0/model/stack_4/block_1/se_reduce_conv2d/BiasAdd/ReadVariableOp", "op": "Const", "input": ["^input_tensor"], "attr": {"dtype": {"type": "DT_FLOAT"}, "value": {"tensor": {"dtype": "DT_FLOAT", "tensorShape": {"dim": [{"size": "28"}]}}}}}, {"name": "StatefulPartitionedCall/EfficientDet-D0/model/stack_4/block_1/se_expand_conv2d/Conv2D/ReadVariableOp", "op": "Const", "input": ["^input_tensor"], "attr": {"dtype": {"type": "DT_FLOAT"}, "value": {"tensor": {"dtype": "DT_FLOAT", "tensorShape": {"dim": [{"size": "1"}, {"size": "1"}, {"size": "28"}, {"size": "672"}]}}}}}, {"name": "StatefulPartitionedCall/EfficientDet-D0/model/stack_4/block_1/se_expand_conv2d/BiasAdd/ReadVariableOp", "op": "Const", "input": ["^input_tensor"], "attr": {"dtype": {"type": "DT_FLOAT"}, "value": {"tensor": {"dtype": "DT_FLOAT", "tensorShape": {"dim": [{"size": "672"}]}}}}}, {"name": "StatefulPartitionedCall/EfficientDet-D0/model/stack_4/block_2/se_reduce_conv2d/Conv2D/ReadVariableOp", "op": "Const", "input": ["^input_tensor"], "attr": {"dtype": {"type": "DT_FLOAT"}, "value": {"tensor": {"dtype": "DT_FLOAT", "tensorShape": {"dim": [{"size": "1"}, {"size": "1"}, {"size": "672"}, {"size": "28"}]}}}}}, {"name": "StatefulPartitionedCall/EfficientDet-D0/model/stack_4/block_2/se_reduce_conv2d/BiasAdd/ReadVariableOp", "op": "Const", "input": ["^input_tensor"], "attr": {"value": {"tensor": {"dtype": "DT_FLOAT", "tensorShape": {"dim": [{"size": "28"}]}}}, "dtype": {"type": "DT_FLOAT"}}}, {"name": "StatefulPartitionedCall/EfficientDet-D0/model/stack_4/block_2/se_expand_conv2d/Conv2D/ReadVariableOp", "op": "Const", "input": ["^input_tensor"], "attr": {"value": {"tensor": {"dtype": "DT_FLOAT", "tensorShape": {"dim": [{"size": "1"}, {"size": "1"}, {"size": "28"}, {"size": "672"}]}}}, "dtype": {"type": "DT_FLOAT"}}}, {"name": "StatefulPartitionedCall/EfficientDet-D0/model/stack_4/block_2/se_expand_conv2d/BiasAdd/ReadVariableOp", "op": "Const", "input": ["^input_tensor"], "attr": {"value": {"tensor": {"dtype": "DT_FLOAT", "tensorShape": {"dim": [{"size": "672"}]}}}, "dtype": {"type": "DT_FLOAT"}}}, {"name": "StatefulPartitionedCall/EfficientDet-D0/model/stack_4/block_2/se_reshape/Reshape/shape", "op": "Const", "input": ["^input_tensor"], "attr": {"value": {"tensor": {"dtype": "DT_INT32", "tensorShape": {"dim": [{"size": "4"}]}}}, "dtype": {"type": "DT_INT32"}}}, {"name": "StatefulPartitionedCall/EfficientDet-D0/model/stack_5/block_0/se_reduce_conv2d/Conv2D/ReadVariableOp", "op": "Const", "input": ["^input_tensor"], "attr": {"dtype": {"type": "DT_FLOAT"}, "value": {"tensor": {"dtype": "DT_FLOAT", "tensorShape": {"dim": [{"size": "1"}, {"size": "1"}, {"size": "672"}, {"size": "28"}]}}}}}, {"name": "StatefulPartitionedCall/EfficientDet-D0/model/stack_5/block_0/se_reduce_conv2d/BiasAdd/ReadVariableOp", "op": "Const", "input": ["^input_tensor"], "attr": {"value": {"tensor": {"dtype": "DT_FLOAT", "tensorShape": {"dim": [{"size": "28"}]}}}, "dtype": {"type": "DT_FLOAT"}}}, {"name": "StatefulPartitionedCall/EfficientDet-D0/model/stack_5/block_0/se_expand_conv2d/Conv2D/ReadVariableOp", "op": "Const", "input": ["^input_tensor"], "attr": {"dtype": {"type": "DT_FLOAT"}, "value": {"tensor": {"dtype": "DT_FLOAT", "tensorShape": {"dim": [{"size": "1"}, {"size": "1"}, {"size": "28"}, {"size": "672"}]}}}}}, {"name": "StatefulPartitionedCall/EfficientDet-D0/model/stack_5/block_0/se_expand_conv2d/BiasAdd/ReadVariableOp", "op": "Const", "input": ["^input_tensor"], "attr": {"value": {"tensor": {"dtype": "DT_FLOAT", "tensorShape": {"dim": [{"size": "672"}]}}}, "dtype": {"type": "DT_FLOAT"}}}, {"name": "StatefulPartitionedCall/EfficientDet-D0/model/stack_5/block_1/se_reduce_conv2d/Conv2D/ReadVariableOp", "op": "Const", "input": ["^input_tensor"], "attr": {"dtype": {"type": "DT_FLOAT"}, "value": {"tensor": {"dtype": "DT_FLOAT", "tensorShape": {"dim": [{"size": "1"}, {"size": "1"}, {"size": "1152"}, {"size": "48"}]}}}}}, {"name": "StatefulPartitionedCall/EfficientDet-D0/model/stack_5/block_1/se_reduce_conv2d/BiasAdd/ReadVariableOp", "op": "Const", "input": ["^input_tensor"], "attr": {"dtype": {"type": "DT_FLOAT"}, "value": {"tensor": {"dtype": "DT_FLOAT", "tensorShape": {"dim": [{"size": "48"}]}}}}}, {"name": "StatefulPartitionedCall/EfficientDet-D0/model/stack_5/block_1/se_expand_conv2d/Conv2D/ReadVariableOp", "op": "Const", "input": ["^input_tensor"], "attr": {"dtype": {"type": "DT_FLOAT"}, "value": {"tensor": {"dtype": "DT_FLOAT", "tensorShape": {"dim": [{"size": "1"}, {"size": "1"}, {"size": "48"}, {"size": "1152"}]}}}}}, {"name": "StatefulPartitionedCall/EfficientDet-D0/model/stack_5/block_1/se_expand_conv2d/BiasAdd/ReadVariableOp", "op": "Const", "input": ["^input_tensor"], "attr": {"value": {"tensor": {"dtype": "DT_FLOAT", "tensorShape": {"dim": [{"size": "1152"}]}}}, "dtype": {"type": "DT_FLOAT"}}}, {"name": "StatefulPartitionedCall/EfficientDet-D0/model/stack_5/block_2/se_reduce_conv2d/Conv2D/ReadVariableOp", "op": "Const", "input": ["^input_tensor"], "attr": {"dtype": {"type": "DT_FLOAT"}, "value": {"tensor": {"dtype": "DT_FLOAT", "tensorShape": {"dim": [{"size": "1"}, {"size": "1"}, {"size": "1152"}, {"size": "48"}]}}}}}, {"name": "StatefulPartitionedCall/EfficientDet-D0/model/stack_5/block_2/se_reduce_conv2d/BiasAdd/ReadVariableOp", "op": "Const", "input": ["^input_tensor"], "attr": {"dtype": {"type": "DT_FLOAT"}, "value": {"tensor": {"dtype": "DT_FLOAT", "tensorShape": {"dim": [{"size": "48"}]}}}}}, {"name": "StatefulPartitionedCall/EfficientDet-D0/model/stack_5/block_2/se_expand_conv2d/Conv2D/ReadVariableOp", "op": "Const", "input": ["^input_tensor"], "attr": {"value": {"tensor": {"dtype": "DT_FLOAT", "tensorShape": {"dim": [{"size": "1"}, {"size": "1"}, {"size": "48"}, {"size": "1152"}]}}}, "dtype": {"type": "DT_FLOAT"}}}, {"name": "StatefulPartitionedCall/EfficientDet-D0/model/stack_5/block_2/se_expand_conv2d/BiasAdd/ReadVariableOp", "op": "Const", "input": ["^input_tensor"], "attr": {"value": {"tensor": {"dtype": "DT_FLOAT", "tensorShape": {"dim": [{"size": "1152"}]}}}, "dtype": {"type": "DT_FLOAT"}}}, {"name": "StatefulPartitionedCall/EfficientDet-D0/model/stack_5/block_3/se_reduce_conv2d/Conv2D/ReadVariableOp", "op": "Const", "input": ["^input_tensor"], "attr": {"dtype": {"type": "DT_FLOAT"}, "value": {"tensor": {"dtype": "DT_FLOAT", "tensorShape": {"dim": [{"size": "1"}, {"size": "1"}, {"size": "1152"}, {"size": "48"}]}}}}}, {"name": "StatefulPartitionedCall/EfficientDet-D0/model/stack_5/block_3/se_reduce_conv2d/BiasAdd/ReadVariableOp", "op": "Const", "input": ["^input_tensor"], "attr": {"value": {"tensor": {"dtype": "DT_FLOAT", "tensorShape": {"dim": [{"size": "48"}]}}}, "dtype": {"type": "DT_FLOAT"}}}, {"name": "StatefulPartitionedCall/EfficientDet-D0/model/stack_5/block_3/se_expand_conv2d/Conv2D/ReadVariableOp", "op": "Const", "input": ["^input_tensor"], "attr": {"dtype": {"type": "DT_FLOAT"}, "value": {"tensor": {"dtype": "DT_FLOAT", "tensorShape": {"dim": [{"size": "1"}, {"size": "1"}, {"size": "48"}, {"size": "1152"}]}}}}}, {"name": "StatefulPartitionedCall/EfficientDet-D0/model/stack_5/block_3/se_expand_conv2d/BiasAdd/ReadVariableOp", "op": "Const", "input": ["^input_tensor"], "attr": {"value": {"tensor": {"dtype": "DT_FLOAT", "tensorShape": {"dim": [{"size": "1152"}]}}}, "dtype": {"type": "DT_FLOAT"}}}, {"name": "StatefulPartitionedCall/EfficientDet-D0/model/stack_5/block_3/se_squeeze/Mean/reduction_indices", "op": "Const", "input": ["^input_tensor"], "attr": {"value": {"tensor": {"dtype": "DT_INT32", "tensorShape": {"dim": [{"size": "2"}]}}}, "dtype": {"type": "DT_INT32"}}}, {"name": "StatefulPartitionedCall/EfficientDet-D0/model/stack_5/block_3/se_reshape/Reshape/shape", "op": "Const", "input": ["^input_tensor"], "attr": {"dtype": {"type": "DT_INT32"}, "value": {"tensor": {"dtype": "DT_INT32", "tensorShape": {"dim": [{"size": "4"}]}}}}}, {"name": "StatefulPartitionedCall/EfficientDet-D0/model/stack_6/block_0/se_reduce_conv2d/Conv2D/ReadVariableOp", "op": "Const", "input": ["^input_tensor"], "attr": {"dtype": {"type": "DT_FLOAT"}, "value": {"tensor": {"dtype": "DT_FLOAT", "tensorShape": {"dim": [{"size": "1"}, {"size": "1"}, {"size": "1152"}, {"size": "48"}]}}}}}, {"name": "StatefulPartitionedCall/EfficientDet-D0/model/stack_6/block_0/se_reduce_conv2d/BiasAdd/ReadVariableOp", "op": "Const", "input": ["^input_tensor"], "attr": {"dtype": {"type": "DT_FLOAT"}, "value": {"tensor": {"dtype": "DT_FLOAT", "tensorShape": {"dim": [{"size": "48"}]}}}}}, {"name": "StatefulPartitionedCall/EfficientDet-D0/model/stack_6/block_0/se_expand_conv2d/Conv2D/ReadVariableOp", "op": "Const", "input": ["^input_tensor"], "attr": {"value": {"tensor": {"dtype": "DT_FLOAT", "tensorShape": {"dim": [{"size": "1"}, {"size": "1"}, {"size": "48"}, {"size": "1152"}]}}}, "dtype": {"type": "DT_FLOAT"}}}, {"name": "StatefulPartitionedCall/EfficientDet-D0/model/stack_6/block_0/se_expand_conv2d/BiasAdd/ReadVariableOp", "op": "Const", "input": ["^input_tensor"], "attr": {"value": {"tensor": {"dtype": "DT_FLOAT", "tensorShape": {"dim": [{"size": "1152"}]}}}, "dtype": {"type": "DT_FLOAT"}}}, {"name": "StatefulPartitionedCall/EfficientDet-D0/bifpn/node_02/1_dn_lvl_6/combine/truediv", "op": "Const", "input": ["^input_tensor"], "attr": {"dtype": {"type": "DT_FLOAT"}, "value": {"tensor": {"dtype": "DT_FLOAT", "tensorShape": {"dim": [{"size": "2"}, {"size": "1"}]}}}}}, {"name": "StatefulPartitionedCall/EfficientDet-D0/bifpn/node_02/1_dn_lvl_6/post_combine/separable_conv/separable_conv2d/ReadVariableOp", "op": "Const", "input": ["^input_tensor"], "attr": {"dtype": {"type": "DT_FLOAT"}, "value": {"tensor": {"dtype": "DT_FLOAT", "tensorShape": {"dim": [{"size": "3"}, {"size": "3"}, {"size": "64"}, {"size": "1"}]}}}}}, {"name": "StatefulPartitionedCall/EfficientDet-D0/bifpn/node_03/1_dn_lvl_5/combine/truediv", "op": "Const", "input": ["^input_tensor"], "attr": {"dtype": {"type": "DT_FLOAT"}, "value": {"tensor": {"dtype": "DT_FLOAT", "tensorShape": {"dim": [{"size": "2"}, {"size": "1"}]}}}}}, {"name": "StatefulPartitionedCall/EfficientDet-D0/bifpn/node_03/1_dn_lvl_5/post_combine/separable_conv/separable_conv2d/ReadVariableOp", "op": "Const", "input": ["^input_tensor"], "attr": {"dtype": {"type": "DT_FLOAT"}, "value": {"tensor": {"dtype": "DT_FLOAT", "tensorShape": {"dim": [{"size": "3"}, {"size": "3"}, {"size": "64"}, {"size": "1"}]}}}}}, {"name": "StatefulPartitionedCall/EfficientDet-D0/bifpn/node_04/1_dn_lvl_4/combine/truediv", "op": "Const", "input": ["^input_tensor"], "attr": {"dtype": {"type": "DT_FLOAT"}, "value": {"tensor": {"dtype": "DT_FLOAT", "tensorShape": {"dim": [{"size": "2"}, {"size": "1"}]}}}}}, {"name": "StatefulPartitionedCall/EfficientDet-D0/bifpn/node_04/1_dn_lvl_4/post_combine/separable_conv/separable_conv2d/ReadVariableOp", "op": "Const", "input": ["^input_tensor"], "attr": {"dtype": {"type": "DT_FLOAT"}, "value": {"tensor": {"dtype": "DT_FLOAT", "tensorShape": {"dim": [{"size": "3"}, {"size": "3"}, {"size": "64"}, {"size": "1"}]}}}}}, {"name": "StatefulPartitionedCall/EfficientDet-D0/bifpn/node_05/1_dn_lvl_3/combine/truediv", "op": "Const", "input": ["^input_tensor"], "attr": {"dtype": {"type": "DT_FLOAT"}, "value": {"tensor": {"dtype": "DT_FLOAT", "tensorShape": {"dim": [{"size": "2"}, {"size": "1"}]}}}}}, {"name": "StatefulPartitionedCall/EfficientDet-D0/bifpn/node_05/1_dn_lvl_3/post_combine/separable_conv/separable_conv2d/ReadVariableOp", "op": "Const", "input": ["^input_tensor"], "attr": {"value": {"tensor": {"dtype": "DT_FLOAT", "tensorShape": {"dim": [{"size": "3"}, {"size": "3"}, {"size": "64"}, {"size": "1"}]}}}, "dtype": {"type": "DT_FLOAT"}}}, {"name": "StatefulPartitionedCall/EfficientDet-D0/bifpn/node_06/1_up_lvl_4/combine/truediv", "op": "Const", "input": ["^input_tensor"], "attr": {"value": {"tensor": {"dtype": "DT_FLOAT", "tensorShape": {"dim": [{"size": "3"}, {"size": "1"}]}}}, "dtype": {"type": "DT_FLOAT"}}}, {"name": "StatefulPartitionedCall/EfficientDet-D0/bifpn/node_06/1_up_lvl_4/post_combine/separable_conv/separable_conv2d/ReadVariableOp", "op": "Const", "input": ["^input_tensor"], "attr": {"dtype": {"type": "DT_FLOAT"}, "value": {"tensor": {"dtype": "DT_FLOAT", "tensorShape": {"dim": [{"size": "3"}, {"size": "3"}, {"size": "64"}, {"size": "1"}]}}}}}, {"name": "StatefulPartitionedCall/EfficientDet-D0/bifpn/node_07/1_up_lvl_5/combine/truediv", "op": "Const", "input": ["^input_tensor"], "attr": {"dtype": {"type": "DT_FLOAT"}, "value": {"tensor": {"dtype": "DT_FLOAT", "tensorShape": {"dim": [{"size": "3"}, {"size": "1"}]}}}}}, {"name": "StatefulPartitionedCall/EfficientDet-D0/bifpn/node_07/1_up_lvl_5/post_combine/separable_conv/separable_conv2d/ReadVariableOp", "op": "Const", "input": ["^input_tensor"], "attr": {"dtype": {"type": "DT_FLOAT"}, "value": {"tensor": {"dtype": "DT_FLOAT", "tensorShape": {"dim": [{"size": "3"}, {"size": "3"}, {"size": "64"}, {"size": "1"}]}}}}}, {"name": "StatefulPartitionedCall/EfficientDet-D0/bifpn/node_08/1_up_lvl_6/combine/truediv", "op": "Const", "input": ["^input_tensor"], "attr": {"value": {"tensor": {"dtype": "DT_FLOAT", "tensorShape": {"dim": [{"size": "3"}, {"size": "1"}]}}}, "dtype": {"type": "DT_FLOAT"}}}, {"name": "StatefulPartitionedCall/EfficientDet-D0/bifpn/node_08/1_up_lvl_6/post_combine/separable_conv/separable_conv2d/ReadVariableOp", "op": "Const", "input": ["^input_tensor"], "attr": {"dtype": {"type": "DT_FLOAT"}, "value": {"tensor": {"dtype": "DT_FLOAT", "tensorShape": {"dim": [{"size": "3"}, {"size": "3"}, {"size": "64"}, {"size": "1"}]}}}}}, {"name": "StatefulPartitionedCall/EfficientDet-D0/bifpn/node_09/1_up_lvl_7/combine/truediv", "op": "Const", "input": ["^input_tensor"], "attr": {"value": {"tensor": {"dtype": "DT_FLOAT", "tensorShape": {"dim": [{"size": "2"}, {"size": "1"}]}}}, "dtype": {"type": "DT_FLOAT"}}}, {"name": "StatefulPartitionedCall/EfficientDet-D0/bifpn/node_09/1_up_lvl_7/post_combine/separable_conv/separable_conv2d/ReadVariableOp", "op": "Const", "input": ["^input_tensor"], "attr": {"dtype": {"type": "DT_FLOAT"}, "value": {"tensor": {"dtype": "DT_FLOAT", "tensorShape": {"dim": [{"size": "3"}, {"size": "3"}, {"size": "64"}, {"size": "1"}]}}}}}, {"name": "StatefulPartitionedCall/EfficientDet-D0/bifpn/node_10/2_dn_lvl_6/combine/truediv", "op": "Const", "input": ["^input_tensor"], "attr": {"dtype": {"type": "DT_FLOAT"}, "value": {"tensor": {"dtype": "DT_FLOAT", "tensorShape": {"dim": [{"size": "2"}, {"size": "1"}]}}}}}, {"name": "StatefulPartitionedCall/EfficientDet-D0/bifpn/node_10/2_dn_lvl_6/post_combine/separable_conv/separable_conv2d/ReadVariableOp", "op": "Const", "input": ["^input_tensor"], "attr": {"value": {"tensor": {"dtype": "DT_FLOAT", "tensorShape": {"dim": [{"size": "3"}, {"size": "3"}, {"size": "64"}, {"size": "1"}]}}}, "dtype": {"type": "DT_FLOAT"}}}, {"name": "StatefulPartitionedCall/EfficientDet-D0/bifpn/node_11/2_dn_lvl_5/combine/truediv", "op": "Const", "input": ["^input_tensor"], "attr": {"dtype": {"type": "DT_FLOAT"}, "value": {"tensor": {"dtype": "DT_FLOAT", "tensorShape": {"dim": [{"size": "2"}, {"size": "1"}]}}}}}, {"name": "StatefulPartitionedCall/EfficientDet-D0/bifpn/node_11/2_dn_lvl_5/post_combine/separable_conv/separable_conv2d/ReadVariableOp", "op": "Const", "input": ["^input_tensor"], "attr": {"dtype": {"type": "DT_FLOAT"}, "value": {"tensor": {"dtype": "DT_FLOAT", "tensorShape": {"dim": [{"size": "3"}, {"size": "3"}, {"size": "64"}, {"size": "1"}]}}}}}, {"name": "StatefulPartitionedCall/EfficientDet-D0/bifpn/node_12/2_dn_lvl_4/combine/truediv", "op": "Const", "input": ["^input_tensor"], "attr": {"value": {"tensor": {"dtype": "DT_FLOAT", "tensorShape": {"dim": [{"size": "2"}, {"size": "1"}]}}}, "dtype": {"type": "DT_FLOAT"}}}, {"name": "StatefulPartitionedCall/EfficientDet-D0/bifpn/node_12/2_dn_lvl_4/post_combine/separable_conv/separable_conv2d/ReadVariableOp", "op": "Const", "input": ["^input_tensor"], "attr": {"value": {"tensor": {"dtype": "DT_FLOAT", "tensorShape": {"dim": [{"size": "3"}, {"size": "3"}, {"size": "64"}, {"size": "1"}]}}}, "dtype": {"type": "DT_FLOAT"}}}, {"name": "StatefulPartitionedCall/EfficientDet-D0/bifpn/node_13/2_dn_lvl_3/combine/truediv", "op": "Const", "input": ["^input_tensor"], "attr": {"dtype": {"type": "DT_FLOAT"}, "value": {"tensor": {"dtype": "DT_FLOAT", "tensorShape": {"dim": [{"size": "2"}, {"size": "1"}]}}}}}, {"name": "StatefulPartitionedCall/EfficientDet-D0/bifpn/node_13/2_dn_lvl_3/post_combine/separable_conv/separable_conv2d/ReadVariableOp", "op": "Const", "input": ["^input_tensor"], "attr": {"dtype": {"type": "DT_FLOAT"}, "value": {"tensor": {"dtype": "DT_FLOAT", "tensorShape": {"dim": [{"size": "3"}, {"size": "3"}, {"size": "64"}, {"size": "1"}]}}}}}, {"name": "StatefulPartitionedCall/EfficientDet-D0/bifpn/node_14/2_up_lvl_4/combine/truediv", "op": "Const", "input": ["^input_tensor"], "attr": {"dtype": {"type": "DT_FLOAT"}, "value": {"tensor": {"dtype": "DT_FLOAT", "tensorShape": {"dim": [{"size": "3"}, {"size": "1"}]}}}}}, {"name": "StatefulPartitionedCall/EfficientDet-D0/bifpn/node_14/2_up_lvl_4/post_combine/separable_conv/separable_conv2d/ReadVariableOp", "op": "Const", "input": ["^input_tensor"], "attr": {"dtype": {"type": "DT_FLOAT"}, "value": {"tensor": {"dtype": "DT_FLOAT", "tensorShape": {"dim": [{"size": "3"}, {"size": "3"}, {"size": "64"}, {"size": "1"}]}}}}}, {"name": "StatefulPartitionedCall/EfficientDet-D0/bifpn/node_15/2_up_lvl_5/combine/truediv", "op": "Const", "input": ["^input_tensor"], "attr": {"dtype": {"type": "DT_FLOAT"}, "value": {"tensor": {"dtype": "DT_FLOAT", "tensorShape": {"dim": [{"size": "3"}, {"size": "1"}]}}}}}, {"name": "StatefulPartitionedCall/EfficientDet-D0/bifpn/node_15/2_up_lvl_5/post_combine/separable_conv/separable_conv2d/ReadVariableOp", "op": "Const", "input": ["^input_tensor"], "attr": {"dtype": {"type": "DT_FLOAT"}, "value": {"tensor": {"dtype": "DT_FLOAT", "tensorShape": {"dim": [{"size": "3"}, {"size": "3"}, {"size": "64"}, {"size": "1"}]}}}}}, {"name": "StatefulPartitionedCall/EfficientDet-D0/bifpn/node_16/2_up_lvl_6/combine/truediv", "op": "Const", "input": ["^input_tensor"], "attr": {"dtype": {"type": "DT_FLOAT"}, "value": {"tensor": {"dtype": "DT_FLOAT", "tensorShape": {"dim": [{"size": "3"}, {"size": "1"}]}}}}}, {"name": "StatefulPartitionedCall/EfficientDet-D0/bifpn/node_16/2_up_lvl_6/post_combine/separable_conv/separable_conv2d/ReadVariableOp", "op": "Const", "input": ["^input_tensor"], "attr": {"dtype": {"type": "DT_FLOAT"}, "value": {"tensor": {"dtype": "DT_FLOAT", "tensorShape": {"dim": [{"size": "3"}, {"size": "3"}, {"size": "64"}, {"size": "1"}]}}}}}, {"name": "StatefulPartitionedCall/EfficientDet-D0/bifpn/node_17/2_up_lvl_7/combine/truediv", "op": "Const", "input": ["^input_tensor"], "attr": {"dtype": {"type": "DT_FLOAT"}, "value": {"tensor": {"dtype": "DT_FLOAT", "tensorShape": {"dim": [{"size": "2"}, {"size": "1"}]}}}}}, {"name": "StatefulPartitionedCall/EfficientDet-D0/bifpn/node_17/2_up_lvl_7/post_combine/separable_conv/separable_conv2d/ReadVariableOp", "op": "Const", "input": ["^input_tensor"], "attr": {"value": {"tensor": {"dtype": "DT_FLOAT", "tensorShape": {"dim": [{"size": "3"}, {"size": "3"}, {"size": "64"}, {"size": "1"}]}}}, "dtype": {"type": "DT_FLOAT"}}}, {"name": "StatefulPartitionedCall/EfficientDet-D0/bifpn/node_02/1_dn_lvl_6/input_0_up_lvl_7/nearest_neighbor_upsampling_x2/nearest_neighbor_upsampling/Reshape/shape", "op": "Const", "input": ["^input_tensor"], "attr": {"dtype": {"type": "DT_INT32"}, "value": {"tensor": {"dtype": "DT_INT32", "tensorShape": {"dim": [{"size": "4"}]}}}}}, {"name": "StatefulPartitionedCall/EfficientDet-D0/bifpn/node_18/3_dn_lvl_6/combine/truediv", "op": "Const", "input": ["^input_tensor"], "attr": {"value": {"tensor": {"dtype": "DT_FLOAT", "tensorShape": {"dim": [{"size": "2"}, {"size": "1"}]}}}, "dtype": {"type": "DT_FLOAT"}}}, {"name": "StatefulPartitionedCall/EfficientDet-D0/bifpn/node_18/3_dn_lvl_6/post_combine/separable_conv/separable_conv2d/ReadVariableOp", "op": "Const", "input": ["^input_tensor"], "attr": {"value": {"tensor": {"dtype": "DT_FLOAT", "tensorShape": {"dim": [{"size": "3"}, {"size": "3"}, {"size": "64"}, {"size": "1"}]}}}, "dtype": {"type": "DT_FLOAT"}}}, {"name": "StatefulPartitionedCall/EfficientDet-D0/bifpn/node_03/1_dn_lvl_5/input_1_dn_lvl_6/nearest_neighbor_upsampling_x2/nearest_neighbor_upsampling/Reshape/shape", "op": "Const", "input": ["^input_tensor"], "attr": {"dtype": {"type": "DT_INT32"}, "value": {"tensor": {"dtype": "DT_INT32", "tensorShape": {"dim": [{"size": "4"}]}}}}}, {"name": "StatefulPartitionedCall/EfficientDet-D0/bifpn/node_19/3_dn_lvl_5/combine/truediv", "op": "Const", "input": ["^input_tensor"], "attr": {"value": {"tensor": {"dtype": "DT_FLOAT", "tensorShape": {"dim": [{"size": "2"}, {"size": "1"}]}}}, "dtype": {"type": "DT_FLOAT"}}}, {"name": "StatefulPartitionedCall/EfficientDet-D0/bifpn/node_19/3_dn_lvl_5/post_combine/separable_conv/separable_conv2d/ReadVariableOp", "op": "Const", "input": ["^input_tensor"], "attr": {"dtype": {"type": "DT_FLOAT"}, "value": {"tensor": {"dtype": "DT_FLOAT", "tensorShape": {"dim": [{"size": "3"}, {"size": "3"}, {"size": "64"}, {"size": "1"}]}}}}}, {"name": "StatefulPartitionedCall/EfficientDet-D0/bifpn/node_04/1_dn_lvl_4/input_1_dn_lvl_5/nearest_neighbor_upsampling_x2/nearest_neighbor_upsampling/Reshape/shape", "op": "Const", "input": ["^input_tensor"], "attr": {"dtype": {"type": "DT_INT32"}, "value": {"tensor": {"dtype": "DT_INT32", "tensorShape": {"dim": [{"size": "4"}]}}}}}, {"name": "StatefulPartitionedCall/EfficientDet-D0/bifpn/node_20/3_dn_lvl_4/combine/truediv", "op": "Const", "input": ["^input_tensor"], "attr": {"dtype": {"type": "DT_FLOAT"}, "value": {"tensor": {"dtype": "DT_FLOAT", "tensorShape": {"dim": [{"size": "2"}, {"size": "1"}]}}}}}, {"name": "StatefulPartitionedCall/EfficientDet-D0/bifpn/node_20/3_dn_lvl_4/post_combine/separable_conv/separable_conv2d/ReadVariableOp", "op": "Const", "input": ["^input_tensor"], "attr": {"value": {"tensor": {"dtype": "DT_FLOAT", "tensorShape": {"dim": [{"size": "3"}, {"size": "3"}, {"size": "64"}, {"size": "1"}]}}}, "dtype": {"type": "DT_FLOAT"}}}, {"name": "StatefulPartitionedCall/EfficientDet-D0/bifpn/node_05/1_dn_lvl_3/input_1_dn_lvl_4/nearest_neighbor_upsampling_x2/nearest_neighbor_upsampling/Reshape/shape", "op": "Const", "input": ["^input_tensor"], "attr": {"value": {"tensor": {"dtype": "DT_INT32", "tensorShape": {"dim": [{"size": "4"}]}}}, "dtype": {"type": "DT_INT32"}}}, {"name": "StatefulPartitionedCall/EfficientDet-D0/bifpn/node_21/3_dn_lvl_3/combine/truediv", "op": "Const", "input": ["^input_tensor"], "attr": {"dtype": {"type": "DT_FLOAT"}, "value": {"tensor": {"dtype": "DT_FLOAT", "tensorShape": {"dim": [{"size": "2"}, {"size": "1"}]}}}}}, {"name": "StatefulPartitionedCall/EfficientDet-D0/bifpn/node_21/3_dn_lvl_3/post_combine/separable_conv/separable_conv2d/ReadVariableOp", "op": "Const", "input": ["^input_tensor"], "attr": {"dtype": {"type": "DT_FLOAT"}, "value": {"tensor": {"dtype": "DT_FLOAT", "tensorShape": {"dim": [{"size": "3"}, {"size": "3"}, {"size": "64"}, {"size": "1"}]}}}}}, {"name": "StatefulPartitionedCall/EfficientDet-D0/bifpn/node_22/3_up_lvl_4/combine/truediv", "op": "Const", "input": ["^input_tensor"], "attr": {"value": {"tensor": {"dtype": "DT_FLOAT", "tensorShape": {"dim": [{"size": "3"}, {"size": "1"}]}}}, "dtype": {"type": "DT_FLOAT"}}}, {"name": "StatefulPartitionedCall/EfficientDet-D0/bifpn/node_22/3_up_lvl_4/post_combine/separable_conv/separable_conv2d/ReadVariableOp", "op": "Const", "input": ["^input_tensor"], "attr": {"dtype": {"type": "DT_FLOAT"}, "value": {"tensor": {"dtype": "DT_FLOAT", "tensorShape": {"dim": [{"size": "3"}, {"size": "3"}, {"size": "64"}, {"size": "1"}]}}}}}, {"name": "StatefulPartitionedCall/EfficientDet-D0/bifpn/node_23/3_up_lvl_5/combine/truediv", "op": "Const", "input": ["^input_tensor"], "attr": {"dtype": {"type": "DT_FLOAT"}, "value": {"tensor": {"dtype": "DT_FLOAT", "tensorShape": {"dim": [{"size": "3"}, {"size": "1"}]}}}}}, {"name": "StatefulPartitionedCall/EfficientDet-D0/bifpn/node_23/3_up_lvl_5/post_combine/separable_conv/separable_conv2d/ReadVariableOp", "op": "Const", "input": ["^input_tensor"], "attr": {"value": {"tensor": {"dtype": "DT_FLOAT", "tensorShape": {"dim": [{"size": "3"}, {"size": "3"}, {"size": "64"}, {"size": "1"}]}}}, "dtype": {"type": "DT_FLOAT"}}}, {"name": "StatefulPartitionedCall/EfficientDet-D0/bifpn/node_24/3_up_lvl_6/combine/truediv", "op": "Const", "input": ["^input_tensor"], "attr": {"dtype": {"type": "DT_FLOAT"}, "value": {"tensor": {"dtype": "DT_FLOAT", "tensorShape": {"dim": [{"size": "3"}, {"size": "1"}]}}}}}, {"name": "StatefulPartitionedCall/EfficientDet-D0/bifpn/node_24/3_up_lvl_6/post_combine/separable_conv/separable_conv2d/ReadVariableOp", "op": "Const", "input": ["^input_tensor"], "attr": {"value": {"tensor": {"dtype": "DT_FLOAT", "tensorShape": {"dim": [{"size": "3"}, {"size": "3"}, {"size": "64"}, {"size": "1"}]}}}, "dtype": {"type": "DT_FLOAT"}}}, {"name": "StatefulPartitionedCall/EfficientDet-D0/bifpn/node_25/3_up_lvl_7/combine/truediv", "op": "Const", "input": ["^input_tensor"], "attr": {"dtype": {"type": "DT_FLOAT"}, "value": {"tensor": {"dtype": "DT_FLOAT", "tensorShape": {"dim": [{"size": "2"}, {"size": "1"}]}}}}}, {"name": "StatefulPartitionedCall/EfficientDet-D0/bifpn/node_25/3_up_lvl_7/post_combine/separable_conv/separable_conv2d/ReadVariableOp", "op": "Const", "input": ["^input_tensor"], "attr": {"dtype": {"type": "DT_FLOAT"}, "value": {"tensor": {"dtype": "DT_FLOAT", "tensorShape": {"dim": [{"size": "3"}, {"size": "3"}, {"size": "64"}, {"size": "1"}]}}}}}, {"name": "StatefulPartitionedCall/WeightSharedConvolutionalBoxPredictor/ClassPredictionTower/conv2d_0/separable_conv2d/ReadVariableOp", "op": "Const", "input": ["^input_tensor"], "attr": {"value": {"tensor": {"dtype": "DT_FLOAT", "tensorShape": {"dim": [{"size": "3"}, {"size": "3"}, {"size": "64"}, {"size": "1"}]}}}, "dtype": {"type": "DT_FLOAT"}}}, {"name": "StatefulPartitionedCall/WeightSharedConvolutionalBoxPredictor/ClassPredictionTower/conv2d_1/separable_conv2d/ReadVariableOp", "op": "Const", "input": ["^input_tensor"], "attr": {"dtype": {"type": "DT_FLOAT"}, "value": {"tensor": {"dtype": "DT_FLOAT", "tensorShape": {"dim": [{"size": "3"}, {"size": "3"}, {"size": "64"}, {"size": "1"}]}}}}}, {"name": "StatefulPartitionedCall/WeightSharedConvolutionalBoxPredictor/ClassPredictionTower/conv2d_2/separable_conv2d/ReadVariableOp", "op": "Const", "input": ["^input_tensor"], "attr": {"value": {"tensor": {"dtype": "DT_FLOAT", "tensorShape": {"dim": [{"size": "3"}, {"size": "3"}, {"size": "64"}, {"size": "1"}]}}}, "dtype": {"type": "DT_FLOAT"}}}, {"name": "StatefulPartitionedCall/WeightSharedConvolutionalBoxPredictor/WeightSharedConvolutionalClassHead/ClassPredictor/separable_conv2d/ReadVariableOp", "op": "Const", "input": ["^input_tensor"], "attr": {"value": {"tensor": {"dtype": "DT_FLOAT", "tensorShape": {"dim": [{"size": "3"}, {"size": "3"}, {"size": "64"}, {"size": "1"}]}}}, "dtype": {"type": "DT_FLOAT"}}}, {"name": "StatefulPartitionedCall/WeightSharedConvolutionalBoxPredictor/WeightSharedConvolutionalClassHead/ClassPredictor/separable_conv2d/ReadVariableOp_1", "op": "Const", "input": ["^input_tensor"], "attr": {"dtype": {"type": "DT_FLOAT"}, "value": {"tensor": {"dtype": "DT_FLOAT", "tensorShape": {"dim": [{"size": "1"}, {"size": "1"}, {"size": "64"}, {"size": "108"}]}}}}}, {"name": "StatefulPartitionedCall/WeightSharedConvolutionalBoxPredictor/WeightSharedConvolutionalClassHead/ClassPredictor/BiasAdd/ReadVariableOp", "op": "Const", "input": ["^input_tensor"], "attr": {"dtype": {"type": "DT_FLOAT"}, "value": {"tensor": {"dtype": "DT_FLOAT", "tensorShape": {"dim": [{"size": "108"}]}}}}}, {"name": "StatefulPartitionedCall/WeightSharedConvolutionalBoxPredictor/WeightSharedConvolutionalClassHead/Reshape_1/shape", "op": "Const", "input": ["^input_tensor"], "attr": {"dtype": {"type": "DT_INT32"}, "value": {"tensor": {"dtype": "DT_INT32", "tensorShape": {"dim": [{"size": "3"}]}}}}}, {"name": "StatefulPartitionedCall/Postprocessor/BatchMultiClassNonMaxSuppression/Slice_4/begin", "op": "Const", "input": ["^input_tensor"], "attr": {"value": {"tensor": {"dtype": "DT_INT32", "tensorShape": {"dim": [{"size": "2"}]}}}, "dtype": {"type": "DT_INT32"}}}, {"name": "StatefulPartitionedCall/Postprocessor/BatchMultiClassNonMaxSuppression/MultiClassNonMaxSuppression/Slice_11/begin", "op": "Const", "input": ["^input_tensor"], "attr": {"value": {"tensor": {"dtype": "DT_INT32", "tensorShape": {"dim": [{"size": "2"}]}}}, "dtype": {"type": "DT_INT32"}}}, {"name": "StatefulPartitionedCall/Postprocessor/BatchMultiClassNonMaxSuppression/MultiClassNonMaxSuppression/stack", "op": "Const", "input": ["^input_tensor"], "attr": {"value": {"tensor": {"dtype": "DT_INT32", "tensorShape": {"dim": [{"size": "2"}]}}}, "dtype": {"type": "DT_INT32"}}}, {"name": "StatefulPartitionedCall/Postprocessor/BatchMultiClassNonMaxSuppression/PadOrClipBoxList/sub_13/x", "op": "Const", "input": ["^input_tensor"], "attr": {"value": {"tensor": {"dtype": "DT_INT32", "tensorShape": {}}}, "dtype": {"type": "DT_INT32"}}}, {"name": "StatefulPartitionedCall/Postprocessor/BatchMultiClassNonMaxSuppression/MultiClassNonMaxSuppression/non_max_suppression_with_scores/iou_threshold", "op": "Const", "input": ["^input_tensor"], "attr": {"dtype": {"type": "DT_FLOAT"}, "value": {"tensor": {"dtype": "DT_FLOAT", "tensorShape": {}}}}}, {"name": "StatefulPartitionedCall/Postprocessor/BatchMultiClassNonMaxSuppression/MultiClassNonMaxSuppression/non_max_suppression_with_scores/score_threshold", "op": "Const", "input": ["^input_tensor"], "attr": {"dtype": {"type": "DT_FLOAT"}, "value": {"tensor": {"dtype": "DT_FLOAT", "tensorShape": {}}}}}, {"name": "StatefulPartitionedCall/Postprocessor/BatchMultiClassNonMaxSuppression/MultiClassNonMaxSuppression/ChangeCoordinateFrame/strided_slice_2/stack_1", "op": "Const", "input": ["^input_tensor"], "attr": {"dtype": {"type": "DT_INT32"}, "value": {"tensor": {"dtype": "DT_INT32", "tensorShape": {"dim": [{"size": "1"}]}}}}}, {"name": "StatefulPartitionedCall/Postprocessor/zeros_like", "op": "Const", "input": ["^input_tensor"], "attr": {"value": {"tensor": {"dtype": "DT_FLOAT", "tensorShape": {"dim": [{"size": "1"}]}}}, "dtype": {"type": "DT_FLOAT"}}}, {"name": "ConstantFolding/StatefulPartitionedCall/Postprocessor/truediv_recip", "op": "Const", "input": ["^input_tensor"], "attr": {"value": {"tensor": {"dtype": "DT_FLOAT", "tensorShape": {}}}, "dtype": {"type": "DT_FLOAT"}}}, {"name": "StatefulPartitionedCall/Postprocessor/BatchMultiClassNonMaxSuppression/PadOrClipBoxList/Select_6/e", "op": "Const", "input": ["^input_tensor"], "attr": {"dtype": {"type": "DT_INT32"}, "value": {"tensor": {"dtype": "DT_INT32", "tensorShape": {}}}}}, {"name": "StatefulPartitionedCall/map/TensorArrayUnstack/TensorListFromTensor/element_shape", "op": "Const", "input": ["^input_tensor"], "attr": {"value": {"tensor": {"dtype": "DT_INT32", "tensorShape": {"dim": [{"size": "3"}]}}}, "dtype": {"type": "DT_INT32"}}}, {"name": "StatefulPartitionedCall/Postprocessor/BatchMultiClassNonMaxSuppression/MultiClassNonMaxSuppression/ChangeCoordinateFrame/strided_slice/stack_1", "op": "Const", "input": ["^input_tensor"], "attr": {"dtype": {"type": "DT_INT32"}, "value": {"tensor": {"dtype": "DT_INT32", "tensorShape": {"dim": [{"size": "1"}]}}}}}, {"name": "StatefulPartitionedCall/Postprocessor/BatchMultiClassNonMaxSuppression/PadOrClipBoxList/zeros_1/shape_as_tensor", "op": "Const", "input": ["^input_tensor"], "attr": {"value": {"tensor": {"dtype": "DT_INT32", "tensorShape": {"dim": [{"size": "1"}]}}}, "dtype": {"type": "DT_INT32"}}}, {"name": "StatefulPartitionedCall/Postprocessor/BatchMultiClassNonMaxSuppression/MultiClassNonMaxSuppression/range_12/delta", "op": "Const", "input": ["^input_tensor"], "attr": {"dtype": {"type": "DT_INT32"}, "value": {"tensor": {"dtype": "DT_INT32", "tensorShape": {}}}}}, {"name": "StatefulPartitionedCall/Postprocessor/BatchMultiClassNonMaxSuppression/MultiClassNonMaxSuppression/GreaterEqual/y", "op": "Const", "input": ["^input_tensor"], "attr": {"dtype": {"type": "DT_FLOAT"}, "value": {"tensor": {"dtype": "DT_FLOAT", "tensorShape": {}}}}}, {"name": "StatefulPartitionedCall/Postprocessor/BatchMultiClassNonMaxSuppression/PadOrClipBoxList/zeros_7/Const", "op": "Const", "input": ["^input_tensor"], "attr": {"dtype": {"type": "DT_INT32"}, "value": {"tensor": {"dtype": "DT_INT32", "tensorShape": {}}}}}, {"name": "StatefulPartitionedCall/Postprocessor/BatchMultiClassNonMaxSuppression/PadOrClipBoxList/strided_slice_12/stack", "op": "Const", "input": ["^input_tensor"], "attr": {"dtype": {"type": "DT_INT32"}, "value": {"tensor": {"dtype": "DT_INT32", "tensorShape": {"dim": [{"size": "1"}]}}}}}, {"name": "StatefulPartitionedCall/Postprocessor/BatchMultiClassNonMaxSuppression/PadOrClipBoxList/zeros_7/shape_as_tensor", "op": "Const", "input": ["^input_tensor"], "attr": {"value": {"tensor": {"dtype": "DT_INT32", "tensorShape": {"dim": [{"size": "1"}]}}}, "dtype": {"type": "DT_INT32"}}}, {"name": "StatefulPartitionedCall/Postprocessor/BatchMultiClassNonMaxSuppression/MultiClassNonMaxSuppression/ones_12/Reshape/shape", "op": "Const", "input": ["^input_tensor"], "attr": {"dtype": {"type": "DT_INT32"}, "value": {"tensor": {"dtype": "DT_INT32", "tensorShape": {"dim": [{"size": "1"}]}}}}}, {"name": "StatefulPartitionedCall/add/y", "op": "Const", "input": ["^input_tensor"], "attr": {"value": {"tensor": {"dtype": "DT_FLOAT", "tensorShape": {}}}, "dtype": {"type": "DT_FLOAT"}}}, {"name": "StatefulPartitionedCall/map/TensorArrayUnstack/TensorListFromTensor", "op": "TensorListFromTensor", "input": ["input_tensor", "StatefulPartitionedCall/map/TensorArrayUnstack/TensorListFromTensor/element_shape"], "attr": {"element_dtype": {"type": "DT_UINT8"}, "shape_type": {"type": "DT_INT32"}}}, {"name": "StatefulPartitionedCall/map/TensorArrayV2_1", "op": "TensorListReserve", "input": ["StatefulPartitionedCall/Postprocessor/BatchMultiClassNonMaxSuppression/PadOrClipBoxList/Select_6/e", "StatefulPartitionedCall/Postprocessor/BatchMultiClassNonMaxSuppression/MultiClassNonMaxSuppression/range_12/delta"], "attr": {"element_dtype": {"type": "DT_FLOAT"}, "shape_type": {"type": "DT_INT32"}}}, {"name": "StatefulPartitionedCall/map/TensorArrayV2_2", "op": "TensorListReserve", "input": ["StatefulPartitionedCall/Postprocessor/BatchMultiClassNonMaxSuppression/PadOrClipBoxList/Select_6/e", "StatefulPartitionedCall/Postprocessor/BatchMultiClassNonMaxSuppression/MultiClassNonMaxSuppression/range_12/delta"], "attr": {"shape_type": {"type": "DT_INT32"}, "element_dtype": {"type": "DT_INT32"}}}, {"name": "StatefulPartitionedCall/Postprocessor/BatchMultiClassNonMaxSuppression/PadOrClipBoxList/zeros_1", "op": "Const", "input": ["^StatefulPartitionedCall/Postprocessor/BatchMultiClassNonMaxSuppression/PadOrClipBoxList/zeros_1/shape_as_tensor", "^StatefulPartitionedCall/Postprocessor/BatchMultiClassNonMaxSuppression/PadOrClipBoxList/zeros_7/Const"], "attr": {"value": {"tensor": {"dtype": "DT_INT32", "tensorShape": {"dim": [{"size": "2"}]}}}, "dtype": {"type": "DT_INT32"}}}, {"name": "StatefulPartitionedCall/Postprocessor/BatchMultiClassNonMaxSuppression/PadOrClipBoxList/zeros_7", "op": "Const", "input": ["^StatefulPartitionedCall/Postprocessor/BatchMultiClassNonMaxSuppression/PadOrClipBoxList/zeros_7/Const", "^StatefulPartitionedCall/Postprocessor/BatchMultiClassNonMaxSuppression/PadOrClipBoxList/zeros_7/shape_as_tensor"], "attr": {"value": {"tensor": {"dtype": "DT_INT32", "tensorShape": {"dim": [{"size": "1"}]}}}, "dtype": {"type": "DT_INT32"}}}, {"name": "StatefulPartitionedCall/map/while", "op": "StatelessWhile", "input": ["StatefulPartitionedCall/Postprocessor/BatchMultiClassNonMaxSuppression/PadOrClipBoxList/zeros_7/Const", "StatefulPartitionedCall/Postprocessor/BatchMultiClassNonMaxSuppression/MultiClassNonMaxSuppression/range_12/delta", "StatefulPartitionedCall/Postprocessor/BatchMultiClassNonMaxSuppression/PadOrClipBoxList/zeros_7/Const", "StatefulPartitionedCall/map/TensorArrayV2_1", "StatefulPartitionedCall/map/TensorArrayV2_2", "StatefulPartitionedCall/map/TensorArrayUnstack/TensorListFromTensor"], "attr": {"T": {"list": {"type": ["DT_INT32", "DT_INT32", "DT_INT32", "DT_VARIANT", "DT_VARIANT", "DT_VARIANT"]}}, "parallel_iterations": {"i": "32"}, "cond": {"func": {"name": "__inference_map_while_cond_13345_53617_frozen"}}, "output_shapes": {"list": {"shape": [{}, {}, {}, {}, {}, {}]}}, "_read_only_resource_inputs": {"list": {}}, "_num_original_outputs": {"i": "6"}, "body": {"func": {"name": "__inference_map_while_body_13346_28622_frozen"}}, "_lower_using_switch_merge": {"b": false}}}, {"name": "StatefulPartitionedCall/map/TensorArrayV2Stack/TensorListStack", "op": "TensorListStack", "input": ["StatefulPartitionedCall/map/while:3", "StatefulPartitionedCall/map/TensorArrayV2Stack/TensorListStack/element_shape"], "attr": {"element_dtype": {"type": "DT_FLOAT"}, "num_elements": {"i": "1"}}}, {"name": "StatefulPartitionedCall/map/TensorArrayV2Stack_1/TensorListStack", "op": "TensorListStack", "input": ["StatefulPartitionedCall/map/while:4", "StatefulPartitionedCall/Postprocessor/BatchMultiClassNonMaxSuppression/MultiClassNonMaxSuppression/ChangeCoordinateFrame/strided_slice/stack_1"], "attr": {"num_elements": {"i": "1"}, "element_dtype": {"type": "DT_INT32"}}}, {"name": "StatefulPartitionedCall/EfficientDet-D0/model/stem_bn/FusedBatchNormV3", "op": "_FusedConv2D", "input": ["StatefulPartitionedCall/map/TensorArrayV2Stack/TensorListStack", "StatefulPartitionedCall/EfficientDet-D0/model/stem_conv2d/Conv2D_weights", "StatefulPartitionedCall/EfficientDet-D0/model/stem_conv2d/Conv2D_bn_offset"], "device": "/device:CPU:0", "attr": {"fused_ops": {"list": {"s": ["Qmlhc0FkZA=="]}}, "data_format": {"s": "TkhXQw=="}, "dilations": {"list": {"i": ["1", "1", "1", "1"]}}, "padding": {"s": "U0FNRQ=="}, "use_cudnn_on_gpu": {"b": true}, "num_args": {"i": "1"}, "T": {"type": "DT_FLOAT"}, "strides": {"list": {"i": ["1", "2", "2", "1"]}}, "explicit_paddings": {"list": {}}, "epsilon": {"f": 0.0}}}, {"name": "StatefulPartitionedCall/Postprocessor/Cast_1", "op": "Cast", "input": ["StatefulPartitionedCall/map/TensorArrayV2Stack_1/TensorListStack"], "attr": {"DstT": {"type": "DT_FLOAT"}, "Truncate": {"b": false}, "SrcT": {"type": "DT_INT32"}}}, {"name": "StatefulPartitionedCall/EfficientDet-D0/model/stem_activation/Sigmoid", "op": "Sigmoid", "input": ["StatefulPartitionedCall/EfficientDet-D0/model/stem_bn/FusedBatchNormV3"], "attr": {"T": {"type": "DT_FLOAT"}}}, {"name": "StatefulPartitionedCall/Postprocessor/unstack", "op": "Unpack", "input": ["StatefulPartitionedCall/Postprocessor/Cast_1"], "attr": {"num": {"i": "3"}, "axis": {"i": "1"}, "T": {"type": "DT_FLOAT"}}}, {"name": "StatefulPartitionedCall/EfficientDet-D0/model/stem_activation/mul", "op": "Mul", "input": ["StatefulPartitionedCall/EfficientDet-D0/model/stem_activation/Sigmoid", "StatefulPartitionedCall/EfficientDet-D0/model/stem_bn/FusedBatchNormV3"], "attr": {"T": {"type": "DT_FLOAT"}}}, {"name": "StatefulPartitionedCall/Postprocessor/truediv", "op": "Mul", "input": ["ConstantFolding/StatefulPartitionedCall/Postprocessor/truediv_recip", "StatefulPartitionedCall/Postprocessor/unstack"], "attr": {"T": {"type": "DT_FLOAT"}}}, {"name": "StatefulPartitionedCall/Postprocessor/truediv_1", "op": "Mul", "input": ["ConstantFolding/StatefulPartitionedCall/Postprocessor/truediv_recip", "StatefulPartitionedCall/Postprocessor/unstack:1"], "attr": {"T": {"type": "DT_FLOAT"}}}, {"name": "StatefulPartitionedCall/EfficientDet-D0/model/stack_0/block_0/depthwise_conv2d/depthwise", "op": "FusedDepthwiseConv2dNative", "input": ["StatefulPartitionedCall/EfficientDet-D0/model/stem_activation/mul", "StatefulPartitionedCall/EfficientDet-D0/model/stack_0/block_0/depthwise_conv2d/depthwise_weights", "StatefulPartitionedCall/EfficientDet-D0/model/stack_0/block_0/depthwise_conv2d/depthwise_bn_offset"], "attr": {"dilations": {"list": {"i": ["1", "1", "1", "1"]}}, "num_args": {"i": "1"}, "fused_ops": {"list": {"s": ["Qmlhc0FkZA=="]}}, "T": {"type": "DT_FLOAT"}, "data_format": {"s": "TkhXQw=="}, "padding": {"s": "U0FNRQ=="}, "strides": {"list": {"i": ["1", "1", "1", "1"]}}}}, {"name": "StatefulPartitionedCall/Postprocessor/stack_1", "op": "Pack", "input": ["StatefulPartitionedCall/Postprocessor/zeros_like", "StatefulPartitionedCall/Postprocessor/zeros_like", "StatefulPartitionedCall/Postprocessor/truediv", "StatefulPartitionedCall/Postprocessor/truediv_1"], "attr": {"N": {"i": "4"}, "T": {"type": "DT_FLOAT"}, "axis": {"i": "1"}}}, {"name": "StatefulPartitionedCall/Postprocessor/BatchMultiClassNonMaxSuppression/unstack_3", "op": "Unpack", "input": ["StatefulPartitionedCall/Postprocessor/stack_1"], "attr": {"num": {"i": "1"}, "T": {"type": "DT_FLOAT"}, "axis": {"i": "0"}}}, {"name": "StatefulPartitionedCall/EfficientDet-D0/model/stack_0/block_0/depthwise_activation/Sigmoid", "op": "Sigmoid", "input": ["StatefulPartitionedCall/EfficientDet-D0/model/stack_0/block_0/depthwise_conv2d/depthwise"], "attr": {"T": {"type": "DT_FLOAT"}}}, {"name": "StatefulPartitionedCall/Postprocessor/BatchMultiClassNonMaxSuppression/MultiClassNonMaxSuppression/ChangeCoordinateFrame/strided_slice", "op": "StridedSlice", "input": ["StatefulPartitionedCall/Postprocessor/BatchMultiClassNonMaxSuppression/unstack_3", "StatefulPartitionedCall/Postprocessor/BatchMultiClassNonMaxSuppression/PadOrClipBoxList/zeros_1/shape_as_tensor", "StatefulPartitionedCall/Postprocessor/BatchMultiClassNonMaxSuppression/MultiClassNonMaxSuppression/ChangeCoordinateFrame/strided_slice/stack_1", "StatefulPartitionedCall/Postprocessor/BatchMultiClassNonMaxSuppression/PadOrClipBoxList/zeros_7/shape_as_tensor"], "attr": {"T": {"type": "DT_FLOAT"}, "end_mask": {"i": "0"}, "new_axis_mask": {"i": "0"}, "shrink_axis_mask": {"i": "1"}, "Index": {"type": "DT_INT32"}, "ellipsis_mask": {"i": "0"}, "begin_mask": {"i": "0"}}}, {"name": "StatefulPartitionedCall/Postprocessor/BatchMultiClassNonMaxSuppression/MultiClassNonMaxSuppression/ChangeCoordinateFrame/strided_slice_1", "op": "StridedSlice", "input": ["StatefulPartitionedCall/Postprocessor/BatchMultiClassNonMaxSuppression/unstack_3", "StatefulPartitionedCall/Postprocessor/BatchMultiClassNonMaxSuppression/PadOrClipBoxList/strided_slice_12/stack", "StatefulPartitionedCall/Postprocessor/BatchMultiClassNonMaxSuppression/PadOrClipBoxList/zeros_7/shape_as_tensor", "StatefulPartitionedCall/Postprocessor/BatchMultiClassNonMaxSuppression/PadOrClipBoxList/zeros_7/shape_as_tensor"], "attr": {"begin_mask": {"i": "0"}, "ellipsis_mask": {"i": "0"}, "Index": {"type": "DT_INT32"}, "T": {"type": "DT_FLOAT"}, "shrink_axis_mask": {"i": "1"}, "new_axis_mask": {"i": "0"}, "end_mask": {"i": "0"}}}, {"name": "StatefulPartitionedCall/Postprocessor/BatchMultiClassNonMaxSuppression/MultiClassNonMaxSuppression/ChangeCoordinateFrame/strided_slice_2", "op": "StridedSlice", "input": ["StatefulPartitionedCall/Postprocessor/BatchMultiClassNonMaxSuppression/unstack_3", "StatefulPartitionedCall/Postprocessor/BatchMultiClassNonMaxSuppression/MultiClassNonMaxSuppression/ChangeCoordinateFrame/strided_slice/stack_1", "StatefulPartitionedCall/Postprocessor/BatchMultiClassNonMaxSuppression/MultiClassNonMaxSuppression/ChangeCoordinateFrame/strided_slice_2/stack_1", "StatefulPartitionedCall/Postprocessor/BatchMultiClassNonMaxSuppression/PadOrClipBoxList/zeros_7/shape_as_tensor"], "attr": {"new_axis_mask": {"i": "0"}, "T": {"type": "DT_FLOAT"}, "shrink_axis_mask": {"i": "1"}, "end_mask": {"i": "0"}, "begin_mask": {"i": "0"}, "Index": {"type": "DT_INT32"}, "ellipsis_mask": {"i": "0"}}}, {"name": "StatefulPartitionedCall/Postprocessor/BatchMultiClassNonMaxSuppression/MultiClassNonMaxSuppression/ChangeCoordinateFrame/strided_slice_3", "op": "StridedSlice", "input": ["StatefulPartitionedCall/Postprocessor/BatchMultiClassNonMaxSuppression/unstack_3", "StatefulPartitionedCall/Postprocessor/BatchMultiClassNonMaxSuppression/PadOrClipBoxList/zeros_7/shape_as_tensor", "StatefulPartitionedCall/Postprocessor/BatchMultiClassNonMaxSuppression/PadOrClipBoxList/zeros_1/shape_as_tensor", "StatefulPartitionedCall/Postprocessor/BatchMultiClassNonMaxSuppression/PadOrClipBoxList/zeros_7/shape_as_tensor"], "attr": {"Index": {"type": "DT_INT32"}, "end_mask": {"i": "0"}, "shrink_axis_mask": {"i": "1"}, "T": {"type": "DT_FLOAT"}, "new_axis_mask": {"i": "0"}, "ellipsis_mask": {"i": "0"}, "begin_mask": {"i": "0"}}}, {"name": "StatefulPartitionedCall/EfficientDet-D0/model/stack_0/block_0/depthwise_activation/mul", "op": "Mul", "input": ["StatefulPartitionedCall/EfficientDet-D0/model/stack_0/block_0/depthwise_activation/Sigmoid", "StatefulPartitionedCall/EfficientDet-D0/model/stack_0/block_0/depthwise_conv2d/depthwise"], "attr": {"T": {"type": "DT_FLOAT"}}}, {"name": "StatefulPartitionedCall/Postprocessor/BatchMultiClassNonMaxSuppression/MultiClassNonMaxSuppression/ChangeCoordinateFrame/sub", "op": "Sub", "input": ["StatefulPartitionedCall/Postprocessor/BatchMultiClassNonMaxSuppression/MultiClassNonMaxSuppression/ChangeCoordinateFrame/strided_slice", "StatefulPartitionedCall/Postprocessor/BatchMultiClassNonMaxSuppression/MultiClassNonMaxSuppression/ChangeCoordinateFrame/strided_slice_1"], "attr": {"T": {"type": "DT_FLOAT"}}}, {"name": "StatefulPartitionedCall/Postprocessor/BatchMultiClassNonMaxSuppression/MultiClassNonMaxSuppression/ChangeCoordinateFrame/sub_2/y", "op": "Pack", "input": ["StatefulPartitionedCall/Postprocessor/BatchMultiClassNonMaxSuppression/MultiClassNonMaxSuppression/ChangeCoordinateFrame/strided_slice_1", "StatefulPartitionedCall/Postprocessor/BatchMultiClassNonMaxSuppression/MultiClassNonMaxSuppression/ChangeCoordinateFrame/strided_slice_3", "StatefulPartitionedCall/Postprocessor/BatchMultiClassNonMaxSuppression/MultiClassNonMaxSuppression/ChangeCoordinateFrame/strided_slice_1", "StatefulPartitionedCall/Postprocessor/BatchMultiClassNonMaxSuppression/MultiClassNonMaxSuppression/ChangeCoordinateFrame/strided_slice_3"], "attr": {"N": {"i": "4"}, "T": {"type": "DT_FLOAT"}, "axis": {"i": "0"}}}, {"name": "StatefulPartitionedCall/Postprocessor/BatchMultiClassNonMaxSuppression/MultiClassNonMaxSuppression/ChangeCoordinateFrame/sub_1", "op": "Sub", "input": ["StatefulPartitionedCall/Postprocessor/BatchMultiClassNonMaxSuppression/MultiClassNonMaxSuppression/ChangeCoordinateFrame/strided_slice_2", "StatefulPartitionedCall/Postprocessor/BatchMultiClassNonMaxSuppression/MultiClassNonMaxSuppression/ChangeCoordinateFrame/strided_slice_3"], "attr": {"T": {"type": "DT_FLOAT"}}}, {"name": "StatefulPartitionedCall/EfficientDet-D0/model/stack_0/block_0/se_squeeze/Mean", "op": "Mean", "input": ["StatefulPartitionedCall/EfficientDet-D0/model/stack_0/block_0/depthwise_activation/mul", "StatefulPartitionedCall/EfficientDet-D0/model/stack_5/block_3/se_squeeze/Mean/reduction_indices"], "attr": {"Tidx": {"type": "DT_INT32"}, "keep_dims": {"b": false}, "T": {"type": "DT_FLOAT"}}}, {"name": "StatefulPartitionedCall/Postprocessor/BatchMultiClassNonMaxSuppression/MultiClassNonMaxSuppression/ChangeCoordinateFrame/truediv", "op": "Reciprocal", "input": ["StatefulPartitionedCall/Postprocessor/BatchMultiClassNonMaxSuppression/MultiClassNonMaxSuppression/ChangeCoordinateFrame/sub", "^StatefulPartitionedCall/add/y"], "attr": {"T": {"type": "DT_FLOAT"}}}, {"name": "StatefulPartitionedCall/Postprocessor/BatchMultiClassNonMaxSuppression/MultiClassNonMaxSuppression/ChangeCoordinateFrame/truediv_1", "op": "Reciprocal", "input": ["StatefulPartitionedCall/Postprocessor/BatchMultiClassNonMaxSuppression/MultiClassNonMaxSuppression/ChangeCoordinateFrame/sub_1", "^StatefulPartitionedCall/add/y"], "attr": {"T": {"type": "DT_FLOAT"}}}, {"name": "StatefulPartitionedCall/EfficientDet-D0/model/stack_0/block_0/se_reshape/Reshape", "op": "Reshape", "input": ["StatefulPartitionedCall/EfficientDet-D0/model/stack_0/block_0/se_squeeze/Mean", "StatefulPartitionedCall/EfficientDet-D0/model/stack_0/block_0/se_reshape/Reshape/shape"], "attr": {"Tshape": {"type": "DT_INT32"}, "T": {"type": "DT_FLOAT"}}}, {"name": "StatefulPartitionedCall/EfficientDet-D0/model/stack_0/block_0/se_reduce_conv2d/BiasAdd", "op": "_FusedConv2D", "input": ["StatefulPartitionedCall/EfficientDet-D0/model/stack_0/block_0/se_reshape/Reshape", "StatefulPartitionedCall/EfficientDet-D0/model/stack_0/block_0/se_reduce_conv2d/Conv2D/ReadVariableOp", "StatefulPartitionedCall/EfficientDet-D0/model/stack_0/block_0/se_reduce_conv2d/BiasAdd/ReadVariableOp"], "device": "/device:CPU:0", "attr": {"padding": {"s": "U0FNRQ=="}, "dilations": {"list": {"i": ["1", "1", "1", "1"]}}, "fused_ops": {"list": {"s": ["Qmlhc0FkZA=="]}}, "explicit_paddings": {"list": {}}, "epsilon": {"f": 0.0}, "strides": {"list": {"i": ["1", "1", "1", "1"]}}, "num_args": {"i": "1"}, "T": {"type": "DT_FLOAT"}, "data_format": {"s": "TkhXQw=="}, "use_cudnn_on_gpu": {"b": true}}}, {"name": "StatefulPartitionedCall/EfficientDet-D0/model/stack_0/block_0/se_reduce_activation/Sigmoid", "op": "Sigmoid", "input": ["StatefulPartitionedCall/EfficientDet-D0/model/stack_0/block_0/se_reduce_conv2d/BiasAdd"], "attr": {"T": {"type": "DT_FLOAT"}}}, {"name": "StatefulPartitionedCall/EfficientDet-D0/model/stack_0/block_0/se_reduce_activation/mul", "op": "Mul", "input": ["StatefulPartitionedCall/EfficientDet-D0/model/stack_0/block_0/se_reduce_activation/Sigmoid", "StatefulPartitionedCall/EfficientDet-D0/model/stack_0/block_0/se_reduce_conv2d/BiasAdd"], "attr": {"T": {"type": "DT_FLOAT"}}}, {"name": "StatefulPartitionedCall/EfficientDet-D0/model/stack_0/block_0/se_expand_conv2d/BiasAdd", "op": "_FusedConv2D", "input": ["StatefulPartitionedCall/EfficientDet-D0/model/stack_0/block_0/se_reduce_activation/mul", "StatefulPartitionedCall/EfficientDet-D0/model/stack_0/block_0/se_expand_conv2d/Conv2D/ReadVariableOp", "StatefulPartitionedCall/EfficientDet-D0/model/stack_0/block_0/se_expand_conv2d/BiasAdd/ReadVariableOp"], "device": "/device:CPU:0", "attr": {"epsilon": {"f": 0.0}, "fused_ops": {"list": {"s": ["Qmlhc0FkZA=="]}}, "padding": {"s": "U0FNRQ=="}, "dilations": {"list": {"i": ["1", "1", "1", "1"]}}, "num_args": {"i": "1"}, "explicit_paddings": {"list": {}}, "strides": {"list": {"i": ["1", "1", "1", "1"]}}, "use_cudnn_on_gpu": {"b": true}, "T": {"type": "DT_FLOAT"}, "data_format": {"s": "TkhXQw=="}}}, {"name": "StatefulPartitionedCall/EfficientDet-D0/model/stack_0/block_0/se_expand_activation/Sigmoid", "op": "Sigmoid", "input": ["StatefulPartitionedCall/EfficientDet-D0/model/stack_0/block_0/se_expand_conv2d/BiasAdd"], "attr": {"T": {"type": "DT_FLOAT"}}}, {"name": "StatefulPartitionedCall/EfficientDet-D0/model/stack_0/block_0/se_excite/mul", "op": "Mul", "input": ["StatefulPartitionedCall/EfficientDet-D0/model/stack_0/block_0/depthwise_activation/mul", "StatefulPartitionedCall/EfficientDet-D0/model/stack_0/block_0/se_expand_activation/Sigmoid"], "attr": {"T": {"type": "DT_FLOAT"}}}, {"name": "StatefulPartitionedCall/EfficientDet-D0/model/stack_0/block_0/project_bn/FusedBatchNormV3", "op": "_FusedConv2D", "input": ["StatefulPartitionedCall/EfficientDet-D0/model/stack_0/block_0/se_excite/mul", "StatefulPartitionedCall/EfficientDet-D0/model/stack_0/block_0/project_conv2d/Conv2D_weights", "StatefulPartitionedCall/EfficientDet-D0/model/stack_0/block_0/project_conv2d/Conv2D_bn_offset"], "device": "/device:CPU:0", "attr": {"use_cudnn_on_gpu": {"b": true}, "dilations": {"list": {"i": ["1", "1", "1", "1"]}}, "T": {"type": "DT_FLOAT"}, "padding": {"s": "U0FNRQ=="}, "data_format": {"s": "TkhXQw=="}, "explicit_paddings": {"list": {}}, "num_args": {"i": "1"}, "epsilon": {"f": 0.0}, "strides": {"list": {"i": ["1", "1", "1", "1"]}}, "fused_ops": {"list": {"s": ["Qmlhc0FkZA=="]}}}}, {"name": "StatefulPartitionedCall/EfficientDet-D0/model/stack_1/block_0/expand_bn/FusedBatchNormV3", "op": "_FusedConv2D", "input": ["StatefulPartitionedCall/EfficientDet-D0/model/stack_0/block_0/project_bn/FusedBatchNormV3", "StatefulPartitionedCall/EfficientDet-D0/model/stack_1/block_0/expand_conv2d/Conv2D_weights", "StatefulPartitionedCall/EfficientDet-D0/model/stack_1/block_0/expand_conv2d/Conv2D_bn_offset"], "device": "/device:CPU:0", "attr": {"epsilon": {"f": 0.0}, "T": {"type": "DT_FLOAT"}, "explicit_paddings": {"list": {}}, "num_args": {"i": "1"}, "padding": {"s": "U0FNRQ=="}, "strides": {"list": {"i": ["1", "1", "1", "1"]}}, "use_cudnn_on_gpu": {"b": true}, "data_format": {"s": "TkhXQw=="}, "fused_ops": {"list": {"s": ["Qmlhc0FkZA=="]}}, "dilations": {"list": {"i": ["1", "1", "1", "1"]}}}}, {"name": "StatefulPartitionedCall/EfficientDet-D0/model/stack_1/block_0/expand_activation/Sigmoid", "op": "Sigmoid", "input": ["StatefulPartitionedCall/EfficientDet-D0/model/stack_1/block_0/expand_bn/FusedBatchNormV3"], "attr": {"T": {"type": "DT_FLOAT"}}}, {"name": "StatefulPartitionedCall/EfficientDet-D0/model/stack_1/block_0/expand_activation/mul", "op": "Mul", "input": ["StatefulPartitionedCall/EfficientDet-D0/model/stack_1/block_0/expand_activation/Sigmoid", "StatefulPartitionedCall/EfficientDet-D0/model/stack_1/block_0/expand_bn/FusedBatchNormV3"], "attr": {"T": {"type": "DT_FLOAT"}}}, {"name": "StatefulPartitionedCall/EfficientDet-D0/model/stack_1/block_0/depthwise_conv2d/depthwise", "op": "FusedDepthwiseConv2dNative", "input": ["StatefulPartitionedCall/EfficientDet-D0/model/stack_1/block_0/expand_activation/mul", "StatefulPartitionedCall/EfficientDet-D0/model/stack_1/block_0/depthwise_conv2d/depthwise_weights", "StatefulPartitionedCall/EfficientDet-D0/model/stack_1/block_0/depthwise_conv2d/depthwise_bn_offset"], "attr": {"data_format": {"s": "TkhXQw=="}, "T": {"type": "DT_FLOAT"}, "num_args": {"i": "1"}, "fused_ops": {"list": {"s": ["Qmlhc0FkZA=="]}}, "strides": {"list": {"i": ["1", "2", "2", "1"]}}, "padding": {"s": "U0FNRQ=="}, "dilations": {"list": {"i": ["1", "1", "1", "1"]}}}}, {"name": "StatefulPartitionedCall/EfficientDet-D0/model/stack_1/block_0/depthwise_activation/Sigmoid", "op": "Sigmoid", "input": ["StatefulPartitionedCall/EfficientDet-D0/model/stack_1/block_0/depthwise_conv2d/depthwise"], "attr": {"T": {"type": "DT_FLOAT"}}}, {"name": "StatefulPartitionedCall/EfficientDet-D0/model/stack_1/block_0/depthwise_activation/mul", "op": "Mul", "input": ["StatefulPartitionedCall/EfficientDet-D0/model/stack_1/block_0/depthwise_activation/Sigmoid", "StatefulPartitionedCall/EfficientDet-D0/model/stack_1/block_0/depthwise_conv2d/depthwise"], "attr": {"T": {"type": "DT_FLOAT"}}}, {"name": "StatefulPartitionedCall/EfficientDet-D0/model/stack_1/block_0/se_squeeze/Mean", "op": "Mean", "input": ["StatefulPartitionedCall/EfficientDet-D0/model/stack_1/block_0/depthwise_activation/mul", "StatefulPartitionedCall/EfficientDet-D0/model/stack_5/block_3/se_squeeze/Mean/reduction_indices"], "attr": {"T": {"type": "DT_FLOAT"}, "Tidx": {"type": "DT_INT32"}, "keep_dims": {"b": false}}}, {"name": "StatefulPartitionedCall/EfficientDet-D0/model/stack_1/block_0/se_reshape/Reshape", "op": "Reshape", "input": ["StatefulPartitionedCall/EfficientDet-D0/model/stack_1/block_0/se_squeeze/Mean", "StatefulPartitionedCall/EfficientDet-D0/model/stack_1/block_0/se_reshape/Reshape/shape"], "attr": {"T": {"type": "DT_FLOAT"}, "Tshape": {"type": "DT_INT32"}}}, {"name": "StatefulPartitionedCall/EfficientDet-D0/model/stack_1/block_0/se_reduce_conv2d/BiasAdd", "op": "_FusedConv2D", "input": ["StatefulPartitionedCall/EfficientDet-D0/model/stack_1/block_0/se_reshape/Reshape", "StatefulPartitionedCall/EfficientDet-D0/model/stack_1/block_0/se_reduce_conv2d/Conv2D/ReadVariableOp", "StatefulPartitionedCall/EfficientDet-D0/model/stack_1/block_0/se_reduce_conv2d/BiasAdd/ReadVariableOp"], "device": "/device:CPU:0", "attr": {"num_args": {"i": "1"}, "explicit_paddings": {"list": {}}, "T": {"type": "DT_FLOAT"}, "padding": {"s": "U0FNRQ=="}, "strides": {"list": {"i": ["1", "1", "1", "1"]}}, "data_format": {"s": "TkhXQw=="}, "use_cudnn_on_gpu": {"b": true}, "fused_ops": {"list": {"s": ["Qmlhc0FkZA=="]}}, "epsilon": {"f": 0.0}, "dilations": {"list": {"i": ["1", "1", "1", "1"]}}}}, {"name": "StatefulPartitionedCall/EfficientDet-D0/model/stack_1/block_0/se_reduce_activation/Sigmoid", "op": "Sigmoid", "input": ["StatefulPartitionedCall/EfficientDet-D0/model/stack_1/block_0/se_reduce_conv2d/BiasAdd"], "attr": {"T": {"type": "DT_FLOAT"}}}, {"name": "StatefulPartitionedCall/EfficientDet-D0/model/stack_1/block_0/se_reduce_activation/mul", "op": "Mul", "input": ["StatefulPartitionedCall/EfficientDet-D0/model/stack_1/block_0/se_reduce_activation/Sigmoid", "StatefulPartitionedCall/EfficientDet-D0/model/stack_1/block_0/se_reduce_conv2d/BiasAdd"], "attr": {"T": {"type": "DT_FLOAT"}}}, {"name": "StatefulPartitionedCall/EfficientDet-D0/model/stack_1/block_0/se_expand_conv2d/BiasAdd", "op": "_FusedConv2D", "input": ["StatefulPartitionedCall/EfficientDet-D0/model/stack_1/block_0/se_reduce_activation/mul", "StatefulPartitionedCall/EfficientDet-D0/model/stack_1/block_0/se_expand_conv2d/Conv2D/ReadVariableOp", "StatefulPartitionedCall/EfficientDet-D0/model/stack_1/block_0/se_expand_conv2d/BiasAdd/ReadVariableOp"], "device": "/device:CPU:0", "attr": {"use_cudnn_on_gpu": {"b": true}, "explicit_paddings": {"list": {}}, "padding": {"s": "U0FNRQ=="}, "dilations": {"list": {"i": ["1", "1", "1", "1"]}}, "strides": {"list": {"i": ["1", "1", "1", "1"]}}, "T": {"type": "DT_FLOAT"}, "data_format": {"s": "TkhXQw=="}, "epsilon": {"f": 0.0}, "num_args": {"i": "1"}, "fused_ops": {"list": {"s": ["Qmlhc0FkZA=="]}}}}, {"name": "StatefulPartitionedCall/EfficientDet-D0/model/stack_1/block_0/se_expand_activation/Sigmoid", "op": "Sigmoid", "input": ["StatefulPartitionedCall/EfficientDet-D0/model/stack_1/block_0/se_expand_conv2d/BiasAdd"], "attr": {"T": {"type": "DT_FLOAT"}}}, {"name": "StatefulPartitionedCall/EfficientDet-D0/model/stack_1/block_0/se_excite/mul", "op": "Mul", "input": ["StatefulPartitionedCall/EfficientDet-D0/model/stack_1/block_0/depthwise_activation/mul", "StatefulPartitionedCall/EfficientDet-D0/model/stack_1/block_0/se_expand_activation/Sigmoid"], "attr": {"T": {"type": "DT_FLOAT"}}}, {"name": "StatefulPartitionedCall/EfficientDet-D0/model/stack_1/block_0/project_bn/FusedBatchNormV3", "op": "_FusedConv2D", "input": ["StatefulPartitionedCall/EfficientDet-D0/model/stack_1/block_0/se_excite/mul", "StatefulPartitionedCall/EfficientDet-D0/model/stack_1/block_0/project_conv2d/Conv2D_weights", "StatefulPartitionedCall/EfficientDet-D0/model/stack_1/block_0/project_conv2d/Conv2D_bn_offset"], "device": "/device:CPU:0", "attr": {"dilations": {"list": {"i": ["1", "1", "1", "1"]}}, "use_cudnn_on_gpu": {"b": true}, "num_args": {"i": "1"}, "padding": {"s": "U0FNRQ=="}, "strides": {"list": {"i": ["1", "1", "1", "1"]}}, "explicit_paddings": {"list": {}}, "data_format": {"s": "TkhXQw=="}, "epsilon": {"f": 0.0}, "fused_ops": {"list": {"s": ["Qmlhc0FkZA=="]}}, "T": {"type": "DT_FLOAT"}}}, {"name": "StatefulPartitionedCall/EfficientDet-D0/model/stack_1/block_1/expand_bn/FusedBatchNormV3", "op": "_FusedConv2D", "input": ["StatefulPartitionedCall/EfficientDet-D0/model/stack_1/block_0/project_bn/FusedBatchNormV3", "StatefulPartitionedCall/EfficientDet-D0/model/stack_1/block_1/expand_conv2d/Conv2D_weights", "StatefulPartitionedCall/EfficientDet-D0/model/stack_1/block_1/expand_conv2d/Conv2D_bn_offset"], "device": "/device:CPU:0", "attr": {"dilations": {"list": {"i": ["1", "1", "1", "1"]}}, "fused_ops": {"list": {"s": ["Qmlhc0FkZA=="]}}, "explicit_paddings": {"list": {}}, "T": {"type": "DT_FLOAT"}, "strides": {"list": {"i": ["1", "1", "1", "1"]}}, "data_format": {"s": "TkhXQw=="}, "num_args": {"i": "1"}, "padding": {"s": "U0FNRQ=="}, "epsilon": {"f": 0.0}, "use_cudnn_on_gpu": {"b": true}}}, {"name": "StatefulPartitionedCall/EfficientDet-D0/model/stack_1/block_1/expand_activation/Sigmoid", "op": "Sigmoid", "input": ["StatefulPartitionedCall/EfficientDet-D0/model/stack_1/block_1/expand_bn/FusedBatchNormV3"], "attr": {"T": {"type": "DT_FLOAT"}}}, {"name": "StatefulPartitionedCall/EfficientDet-D0/model/stack_1/block_1/expand_activation/mul", "op": "Mul", "input": ["StatefulPartitionedCall/EfficientDet-D0/model/stack_1/block_1/expand_activation/Sigmoid", "StatefulPartitionedCall/EfficientDet-D0/model/stack_1/block_1/expand_bn/FusedBatchNormV3"], "attr": {"T": {"type": "DT_FLOAT"}}}, {"name": "StatefulPartitionedCall/EfficientDet-D0/model/stack_1/block_1/depthwise_conv2d/depthwise", "op": "FusedDepthwiseConv2dNative", "input": ["StatefulPartitionedCall/EfficientDet-D0/model/stack_1/block_1/expand_activation/mul", "StatefulPartitionedCall/EfficientDet-D0/model/stack_1/block_1/depthwise_conv2d/depthwise_weights", "StatefulPartitionedCall/EfficientDet-D0/model/stack_1/block_1/depthwise_conv2d/depthwise_bn_offset"], "attr": {"padding": {"s": "U0FNRQ=="}, "strides": {"list": {"i": ["1", "1", "1", "1"]}}, "fused_ops": {"list": {"s": ["Qmlhc0FkZA=="]}}, "num_args": {"i": "1"}, "dilations": {"list": {"i": ["1", "1", "1", "1"]}}, "data_format": {"s": "TkhXQw=="}, "T": {"type": "DT_FLOAT"}}}, {"name": "StatefulPartitionedCall/EfficientDet-D0/model/stack_1/block_1/depthwise_activation/Sigmoid", "op": "Sigmoid", "input": ["StatefulPartitionedCall/EfficientDet-D0/model/stack_1/block_1/depthwise_conv2d/depthwise"], "attr": {"T": {"type": "DT_FLOAT"}}}, {"name": "StatefulPartitionedCall/EfficientDet-D0/model/stack_1/block_1/depthwise_activation/mul", "op": "Mul", "input": ["StatefulPartitionedCall/EfficientDet-D0/model/stack_1/block_1/depthwise_activation/Sigmoid", "StatefulPartitionedCall/EfficientDet-D0/model/stack_1/block_1/depthwise_conv2d/depthwise"], "attr": {"T": {"type": "DT_FLOAT"}}}, {"name": "StatefulPartitionedCall/EfficientDet-D0/model/stack_1/block_1/se_squeeze/Mean", "op": "Mean", "input": ["StatefulPartitionedCall/EfficientDet-D0/model/stack_1/block_1/depthwise_activation/mul", "StatefulPartitionedCall/EfficientDet-D0/model/stack_5/block_3/se_squeeze/Mean/reduction_indices"], "attr": {"keep_dims": {"b": false}, "T": {"type": "DT_FLOAT"}, "Tidx": {"type": "DT_INT32"}}}, {"name": "StatefulPartitionedCall/EfficientDet-D0/model/stack_1/block_1/se_reshape/Reshape", "op": "Reshape", "input": ["StatefulPartitionedCall/EfficientDet-D0/model/stack_1/block_1/se_squeeze/Mean", "StatefulPartitionedCall/EfficientDet-D0/model/stack_1/block_1/se_reshape/Reshape/shape"], "attr": {"T": {"type": "DT_FLOAT"}, "Tshape": {"type": "DT_INT32"}}}, {"name": "StatefulPartitionedCall/EfficientDet-D0/model/stack_1/block_1/se_reduce_conv2d/BiasAdd", "op": "_FusedConv2D", "input": ["StatefulPartitionedCall/EfficientDet-D0/model/stack_1/block_1/se_reshape/Reshape", "StatefulPartitionedCall/EfficientDet-D0/model/stack_1/block_1/se_reduce_conv2d/Conv2D/ReadVariableOp", "StatefulPartitionedCall/EfficientDet-D0/model/stack_1/block_1/se_reduce_conv2d/BiasAdd/ReadVariableOp"], "device": "/device:CPU:0", "attr": {"dilations": {"list": {"i": ["1", "1", "1", "1"]}}, "epsilon": {"f": 0.0}, "fused_ops": {"list": {"s": ["Qmlhc0FkZA=="]}}, "use_cudnn_on_gpu": {"b": true}, "explicit_paddings": {"list": {}}, "num_args": {"i": "1"}, "strides": {"list": {"i": ["1", "1", "1", "1"]}}, "T": {"type": "DT_FLOAT"}, "data_format": {"s": "TkhXQw=="}, "padding": {"s": "U0FNRQ=="}}}, {"name": "StatefulPartitionedCall/EfficientDet-D0/model/stack_1/block_1/se_reduce_activation/Sigmoid", "op": "Sigmoid", "input": ["StatefulPartitionedCall/EfficientDet-D0/model/stack_1/block_1/se_reduce_conv2d/BiasAdd"], "attr": {"T": {"type": "DT_FLOAT"}}}, {"name": "StatefulPartitionedCall/EfficientDet-D0/model/stack_1/block_1/se_reduce_activation/mul", "op": "Mul", "input": ["StatefulPartitionedCall/EfficientDet-D0/model/stack_1/block_1/se_reduce_activation/Sigmoid", "StatefulPartitionedCall/EfficientDet-D0/model/st…
ape": [64], "dtype": "float32"}, {"name": "StatefulPartitionedCall/EfficientDet-D0/bifpn/node_09/1_up_lvl_7/post_combine/separable_conv/separable_conv2d_weights", "shape": [1, 1, 64, 64], "dtype": "float32"}, {"name": "StatefulPartitionedCall/EfficientDet-D0/bifpn/node_09/1_up_lvl_7/post_combine/separable_conv/separable_conv2d_bn_offset", "shape": [64], "dtype": "float32"}, {"name": "StatefulPartitionedCall/EfficientDet-D0/bifpn/node_10/2_dn_lvl_6/post_combine/separable_conv/separable_conv2d_weights", "shape": [1, 1, 64, 64], "dtype": "float32"}, {"name": "StatefulPartitionedCall/EfficientDet-D0/bifpn/node_10/2_dn_lvl_6/post_combine/separable_conv/separable_conv2d_bn_offset", "shape": [64], "dtype": "float32"}, {"name": "StatefulPartitionedCall/EfficientDet-D0/bifpn/node_11/2_dn_lvl_5/post_combine/separable_conv/separable_conv2d_weights", "shape": [1, 1, 64, 64], "dtype": "float32"}, {"name": "StatefulPartitionedCall/EfficientDet-D0/bifpn/node_11/2_dn_lvl_5/post_combine/separable_conv/separable_conv2d_bn_offset", "shape": [64], "dtype": "float32"}, {"name": "StatefulPartitionedCall/EfficientDet-D0/bifpn/node_12/2_dn_lvl_4/post_combine/separable_conv/separable_conv2d_weights", "shape": [1, 1, 64, 64], "dtype": "float32"}, {"name": "StatefulPartitionedCall/EfficientDet-D0/bifpn/node_12/2_dn_lvl_4/post_combine/separable_conv/separable_conv2d_bn_offset", "shape": [64], "dtype": "float32"}, {"name": "StatefulPartitionedCall/EfficientDet-D0/bifpn/node_13/2_dn_lvl_3/post_combine/separable_conv/separable_conv2d_weights", "shape": [1, 1, 64, 64], "dtype": "float32"}, {"name": "StatefulPartitionedCall/EfficientDet-D0/bifpn/node_13/2_dn_lvl_3/post_combine/separable_conv/separable_conv2d_bn_offset", "shape": [64], "dtype": "float32"}, {"name": "StatefulPartitionedCall/EfficientDet-D0/bifpn/node_14/2_up_lvl_4/post_combine/separable_conv/separable_conv2d_weights", "shape": [1, 1, 64, 64], "dtype": "float32"}, {"name": "StatefulPartitionedCall/EfficientDet-D0/bifpn/node_14/2_up_lvl_4/post_combine/separable_conv/separable_conv2d_bn_offset", "shape": [64], "dtype": "float32"}, {"name": "StatefulPartitionedCall/EfficientDet-D0/bifpn/node_15/2_up_lvl_5/post_combine/separable_conv/separable_conv2d_weights", "shape": [1, 1, 64, 64], "dtype": "float32"}, {"name": "StatefulPartitionedCall/EfficientDet-D0/bifpn/node_15/2_up_lvl_5/post_combine/separable_conv/separable_conv2d_bn_offset", "shape": [64], "dtype": "float32"}, {"name": "StatefulPartitionedCall/EfficientDet-D0/bifpn/node_16/2_up_lvl_6/post_combine/separable_conv/separable_conv2d_weights", "shape": [1, 1, 64, 64], "dtype": "float32"}, {"name": "StatefulPartitionedCall/EfficientDet-D0/bifpn/node_16/2_up_lvl_6/post_combine/separable_conv/separable_conv2d_bn_offset", "shape": [64], "dtype": "float32"}, {"name": "StatefulPartitionedCall/EfficientDet-D0/bifpn/node_17/2_up_lvl_7/post_combine/separable_conv/separable_conv2d_weights", "shape": [1, 1, 64, 64], "dtype": "float32"}, {"name": "StatefulPartitionedCall/EfficientDet-D0/bifpn/node_17/2_up_lvl_7/post_combine/separable_conv/separable_conv2d_bn_offset", "shape": [64], "dtype": "float32"}, {"name": "StatefulPartitionedCall/EfficientDet-D0/bifpn/node_18/3_dn_lvl_6/post_combine/separable_conv/separable_conv2d_weights", "shape": [1, 1, 64, 64], "dtype": "float32"}, {"name": "StatefulPartitionedCall/EfficientDet-D0/bifpn/node_18/3_dn_lvl_6/post_combine/separable_conv/separable_conv2d_bn_offset", "shape": [64], "dtype": "float32"}, {"name": "StatefulPartitionedCall/EfficientDet-D0/bifpn/node_19/3_dn_lvl_5/post_combine/separable_conv/separable_conv2d_weights", "shape": [1, 1, 64, 64], "dtype": "float32"}, {"name": "StatefulPartitionedCall/EfficientDet-D0/bifpn/node_19/3_dn_lvl_5/post_combine/separable_conv/separable_conv2d_bn_offset", "shape": [64], "dtype": "float32"}, {"name": "StatefulPartitionedCall/EfficientDet-D0/bifpn/node_20/3_dn_lvl_4/post_combine/separable_conv/separable_conv2d_weights", "shape": [1, 1, 64, 64], "dtype": "float32"}, {"name": "StatefulPartitionedCall/EfficientDet-D0/bifpn/node_20/3_dn_lvl_4/post_combine/separable_conv/separable_conv2d_bn_offset", "shape": [64], "dtype": "float32"}, {"name": "StatefulPartitionedCall/EfficientDet-D0/bifpn/node_21/3_dn_lvl_3/post_combine/separable_conv/separable_conv2d_weights", "shape": [1, 1, 64, 64], "dtype": "float32"}, {"name": "StatefulPartitionedCall/EfficientDet-D0/bifpn/node_21/3_dn_lvl_3/post_combine/separable_conv/separable_conv2d_bn_offset", "shape": [64], "dtype": "float32"}, {"name": "StatefulPartitionedCall/WeightSharedConvolutionalBoxPredictor/BoxPredictionTower/conv2d_0/separable_conv2d_weights", "shape": [1, 1, 64, 64], "dtype": "float32"}, {"name": "StatefulPartitionedCall/WeightSharedConvolutionalBoxPredictor/BoxPredictionTower/conv2d_0/separable_conv2d_bn_offset", "shape": [64], "dtype": "float32"}, {"name": "StatefulPartitionedCall/WeightSharedConvolutionalBoxPredictor/ClassPredictionTower/conv2d_0/separable_conv2d_weights", "shape": [1, 1, 64, 64], "dtype": "float32"}, {"name": "StatefulPartitionedCall/WeightSharedConvolutionalBoxPredictor/ClassPredictionTower/conv2d_0/separable_conv2d_bn_offset", "shape": [64], "dtype": "float32"}, {"name": "StatefulPartitionedCall/WeightSharedConvolutionalBoxPredictor/BoxPredictionTower/conv2d_1/separable_conv2d_weights", "shape": [1, 1, 64, 64], "dtype": "float32"}, {"name": "StatefulPartitionedCall/WeightSharedConvolutionalBoxPredictor/BoxPredictionTower/conv2d_1/separable_conv2d_bn_offset", "shape": [64], "dtype": "float32"}, {"name": "StatefulPartitionedCall/WeightSharedConvolutionalBoxPredictor/ClassPredictionTower/conv2d_1/separable_conv2d_weights", "shape": [1, 1, 64, 64], "dtype": "float32"}, {"name": "StatefulPartitionedCall/WeightSharedConvolutionalBoxPredictor/ClassPredictionTower/conv2d_1/separable_conv2d_bn_offset", "shape": [64], "dtype": "float32"}, {"name": "StatefulPartitionedCall/EfficientDet-D0/bifpn/node_22/3_up_lvl_4/post_combine/separable_conv/separable_conv2d_weights", "shape": [1, 1, 64, 64], "dtype": "float32"}, {"name": "StatefulPartitionedCall/EfficientDet-D0/bifpn/node_22/3_up_lvl_4/post_combine/separable_conv/separable_conv2d_bn_offset", "shape": [64], "dtype": "float32"}, {"name": "StatefulPartitionedCall/WeightSharedConvolutionalBoxPredictor/BoxPredictionTower/conv2d_0/separable_conv2d_1_weights", "shape": [1, 1, 64, 64], "dtype": "float32"}, {"name": "StatefulPartitionedCall/WeightSharedConvolutionalBoxPredictor/BoxPredictionTower/conv2d_0/separable_conv2d_1_bn_offset", "shape": [64], "dtype": "float32"}, {"name": "StatefulPartitionedCall/WeightSharedConvolutionalBoxPredictor/ClassPredictionTower/conv2d_0/separable_conv2d_1_weights", "shape": [1, 1, 64, 64], "dtype": "float32"}, {"name": "StatefulPartitionedCall/WeightSharedConvolutionalBoxPredictor/ClassPredictionTower/conv2d_0/separable_conv2d_1_bn_offset", "shape": [64], "dtype": "float32"}, {"name": "StatefulPartitionedCall/WeightSharedConvolutionalBoxPredictor/BoxPredictionTower/conv2d_2/separable_conv2d_weights", "shape": [1, 1, 64, 64], "dtype": "float32"}, {"name": "StatefulPartitionedCall/WeightSharedConvolutionalBoxPredictor/BoxPredictionTower/conv2d_2/separable_conv2d_bn_offset", "shape": [64], "dtype": "float32"}, {"name": "StatefulPartitionedCall/WeightSharedConvolutionalBoxPredictor/ClassPredictionTower/conv2d_2/separable_conv2d_weights", "shape": [1, 1, 64, 64], "dtype": "float32"}, {"name": "StatefulPartitionedCall/WeightSharedConvolutionalBoxPredictor/ClassPredictionTower/conv2d_2/separable_conv2d_bn_offset", "shape": [64], "dtype": "float32"}, {"name": "StatefulPartitionedCall/WeightSharedConvolutionalBoxPredictor/BoxPredictionTower/conv2d_1/separable_conv2d_1_weights", "shape": [1, 1, 64, 64], "dtype": "float32"}, {"name": "StatefulPartitionedCall/WeightSharedConvolutionalBoxPredictor/BoxPredictionTower/conv2d_1/separable_conv2d_1_bn_offset", "shape": [64], "dtype": "float32"}, {"name": "StatefulPartitionedCall/WeightSharedConvolutionalBoxPredictor/ClassPredictionTower/conv2d_1/separable_conv2d_1_weights", "shape": [1, 1, 64, 64], "dtype": "float32"}, {"name": "StatefulPartitionedCall/WeightSharedConvolutionalBoxPredictor/ClassPredictionTower/conv2d_1/separable_conv2d_1_bn_offset", "shape": [64], "dtype": "float32"}, {"name": "StatefulPartitionedCall/EfficientDet-D0/bifpn/node_23/3_up_lvl_5/post_combine/separable_conv/separable_conv2d_weights", "shape": [1, 1, 64, 64], "dtype": "float32"}, {"name": "StatefulPartitionedCall/EfficientDet-D0/bifpn/node_23/3_up_lvl_5/post_combine/separable_conv/separable_conv2d_bn_offset", "shape": [64], "dtype": "float32"}, {"name": "StatefulPartitionedCall/WeightSharedConvolutionalBoxPredictor/BoxPredictionTower/conv2d_0/separable_conv2d_2_weights", "shape": [1, 1, 64, 64], "dtype": "float32"}, {"name": "StatefulPartitionedCall/WeightSharedConvolutionalBoxPredictor/BoxPredictionTower/conv2d_0/separable_conv2d_2_bn_offset", "shape": [64], "dtype": "float32"}, {"name": "StatefulPartitionedCall/WeightSharedConvolutionalBoxPredictor/ClassPredictionTower/conv2d_0/separable_conv2d_2_weights", "shape": [1, 1, 64, 64], "dtype": "float32"}, {"name": "StatefulPartitionedCall/WeightSharedConvolutionalBoxPredictor/ClassPredictionTower/conv2d_0/separable_conv2d_2_bn_offset", "shape": [64], "dtype": "float32"}, {"name": "StatefulPartitionedCall/WeightSharedConvolutionalBoxPredictor/BoxPredictionTower/conv2d_2/separable_conv2d_1_weights", "shape": [1, 1, 64, 64], "dtype": "float32"}, {"name": "StatefulPartitionedCall/WeightSharedConvolutionalBoxPredictor/BoxPredictionTower/conv2d_2/separable_conv2d_1_bn_offset", "shape": [64], "dtype": "float32"}, {"name": "StatefulPartitionedCall/WeightSharedConvolutionalBoxPredictor/ClassPredictionTower/conv2d_2/separable_conv2d_1_weights", "shape": [1, 1, 64, 64], "dtype": "float32"}, {"name": "StatefulPartitionedCall/WeightSharedConvolutionalBoxPredictor/ClassPredictionTower/conv2d_2/separable_conv2d_1_bn_offset", "shape": [64], "dtype": "float32"}, {"name": "StatefulPartitionedCall/WeightSharedConvolutionalBoxPredictor/BoxPredictionTower/conv2d_1/separable_conv2d_2_weights", "shape": [1, 1, 64, 64], "dtype": "float32"}, {"name": "StatefulPartitionedCall/WeightSharedConvolutionalBoxPredictor/BoxPredictionTower/conv2d_1/separable_conv2d_2_bn_offset", "shape": [64], "dtype": "float32"}, {"name": "StatefulPartitionedCall/WeightSharedConvolutionalBoxPredictor/ClassPredictionTower/conv2d_1/separable_conv2d_2_weights", "shape": [1, 1, 64, 64], "dtype": "float32"}, {"name": "StatefulPartitionedCall/WeightSharedConvolutionalBoxPredictor/ClassPredictionTower/conv2d_1/separable_conv2d_2_bn_offset", "shape": [64], "dtype": "float32"}, {"name": "StatefulPartitionedCall/EfficientDet-D0/bifpn/node_24/3_up_lvl_6/post_combine/separable_conv/separable_conv2d_weights", "shape": [1, 1, 64, 64], "dtype": "float32"}, {"name": "StatefulPartitionedCall/EfficientDet-D0/bifpn/node_24/3_up_lvl_6/post_combine/separable_conv/separable_conv2d_bn_offset", "shape": [64], "dtype": "float32"}, {"name": "StatefulPartitionedCall/WeightSharedConvolutionalBoxPredictor/BoxPredictionTower/conv2d_0/separable_conv2d_3_weights", "shape": [1, 1, 64, 64], "dtype": "float32"}, {"name": "StatefulPartitionedCall/WeightSharedConvolutionalBoxPredictor/BoxPredictionTower/conv2d_0/separable_conv2d_3_bn_offset", "shape": [64], "dtype": "float32"}, {"name": "StatefulPartitionedCall/WeightSharedConvolutionalBoxPredictor/ClassPredictionTower/conv2d_0/separable_conv2d_3_weights", "shape": [1, 1, 64, 64], "dtype": "float32"}, {"name": "StatefulPartitionedCall/WeightSharedConvolutionalBoxPredictor/ClassPredictionTower/conv2d_0/separable_conv2d_3_bn_offset", "shape": [64], "dtype": "float32"}, {"name": "StatefulPartitionedCall/WeightSharedConvolutionalBoxPredictor/BoxPredictionTower/conv2d_2/separable_conv2d_2_weights", "shape": [1, 1, 64, 64], "dtype": "float32"}, {"name": "StatefulPartitionedCall/WeightSharedConvolutionalBoxPredictor/BoxPredictionTower/conv2d_2/separable_conv2d_2_bn_offset", "shape": [64], "dtype": "float32"}, {"name": "StatefulPartitionedCall/WeightSharedConvolutionalBoxPredictor/ClassPredictionTower/conv2d_2/separable_conv2d_2_weights", "shape": [1, 1, 64, 64], "dtype": "float32"}, {"name": "StatefulPartitionedCall/WeightSharedConvolutionalBoxPredictor/ClassPredictionTower/conv2d_2/separable_conv2d_2_bn_offset", "shape": [64], "dtype": "float32"}, {"name": "StatefulPartitionedCall/WeightSharedConvolutionalBoxPredictor/BoxPredictionTower/conv2d_1/separable_conv2d_3_weights", "shape": [1, 1, 64, 64], "dtype": "float32"}, {"name": "StatefulPartitionedCall/WeightSharedConvolutionalBoxPredictor/BoxPredictionTower/conv2d_1/separable_conv2d_3_bn_offset", "shape": [64], "dtype": "float32"}, {"name": "StatefulPartitionedCall/WeightSharedConvolutionalBoxPredictor/ClassPredictionTower/conv2d_1/separable_conv2d_3_weights", "shape": [1, 1, 64, 64], "dtype": "float32"}, {"name": "StatefulPartitionedCall/WeightSharedConvolutionalBoxPredictor/ClassPredictionTower/conv2d_1/separable_conv2d_3_bn_offset", "shape": [64], "dtype": "float32"}, {"name": "StatefulPartitionedCall/EfficientDet-D0/bifpn/node_25/3_up_lvl_7/post_combine/separable_conv/separable_conv2d_weights", "shape": [1, 1, 64, 64], "dtype": "float32"}, {"name": "StatefulPartitionedCall/EfficientDet-D0/bifpn/node_25/3_up_lvl_7/post_combine/separable_conv/separable_conv2d_bn_offset", "shape": [64], "dtype": "float32"}, {"name": "StatefulPartitionedCall/WeightSharedConvolutionalBoxPredictor/BoxPredictionTower/conv2d_0/separable_conv2d_4_weights", "shape": [1, 1, 64, 64], "dtype": "float32"}, {"name": "StatefulPartitionedCall/WeightSharedConvolutionalBoxPredictor/BoxPredictionTower/conv2d_0/separable_conv2d_4_bn_offset", "shape": [64], "dtype": "float32"}, {"name": "StatefulPartitionedCall/WeightSharedConvolutionalBoxPredictor/ClassPredictionTower/conv2d_0/separable_conv2d_4_weights", "shape": [1, 1, 64, 64], "dtype": "float32"}, {"name": "StatefulPartitionedCall/WeightSharedConvolutionalBoxPredictor/ClassPredictionTower/conv2d_0/separable_conv2d_4_bn_offset", "shape": [64], "dtype": "float32"}, {"name": "StatefulPartitionedCall/WeightSharedConvolutionalBoxPredictor/BoxPredictionTower/conv2d_2/separable_conv2d_3_weights", "shape": [1, 1, 64, 64], "dtype": "float32"}, {"name": "StatefulPartitionedCall/WeightSharedConvolutionalBoxPredictor/BoxPredictionTower/conv2d_2/separable_conv2d_3_bn_offset", "shape": [64], "dtype": "float32"}, {"name": "StatefulPartitionedCall/WeightSharedConvolutionalBoxPredictor/ClassPredictionTower/conv2d_2/separable_conv2d_3_weights", "shape": [1, 1, 64, 64], "dtype": "float32"}, {"name": "StatefulPartitionedCall/WeightSharedConvolutionalBoxPredictor/ClassPredictionTower/conv2d_2/separable_conv2d_3_bn_offset", "shape": [64], "dtype": "float32"}, {"name": "StatefulPartitionedCall/WeightSharedConvolutionalBoxPredictor/BoxPredictionTower/conv2d_1/separable_conv2d_4_weights", "shape": [1, 1, 64, 64], "dtype": "float32"}, {"name": "StatefulPartitionedCall/WeightSharedConvolutionalBoxPredictor/BoxPredictionTower/conv2d_1/separable_conv2d_4_bn_offset", "shape": [64], "dtype": "float32"}, {"name": "StatefulPartitionedCall/WeightSharedConvolutionalBoxPredictor/ClassPredictionTower/conv2d_1/separable_conv2d_4_weights", "shape": [1, 1, 64, 64], "dtype": "float32"}, {"name": "StatefulPartitionedCall/WeightSharedConvolutionalBoxPredictor/ClassPredictionTower/conv2d_1/separable_conv2d_4_bn_offset", "shape": [64], "dtype": "float32"}, {"name": "StatefulPartitionedCall/WeightSharedConvolutionalBoxPredictor/BoxPredictionTower/conv2d_2/separable_conv2d_4_weights", "shape": [1, 1, 64, 64], "dtype": "float32"}, {"name": "StatefulPartitionedCall/WeightSharedConvolutionalBoxPredictor/BoxPredictionTower/conv2d_2/separable_conv2d_4_bn_offset", "shape": [64], "dtype": "float32"}, {"name": "StatefulPartitionedCall/WeightSharedConvolutionalBoxPredictor/ClassPredictionTower/conv2d_2/separable_conv2d_4_weights", "shape": [1, 1, 64, 64], "dtype": "float32"}, {"name": "StatefulPartitionedCall/WeightSharedConvolutionalBoxPredictor/ClassPredictionTower/conv2d_2/separable_conv2d_4_bn_offset", "shape": [64], "dtype": "float32"}, {"name": "StatefulPartitionedCall/Postprocessor/BatchMultiClassNonMaxSuppression/Reshape_3", "shape": [49104], "dtype": "float32"}, {"name": "StatefulPartitionedCall/Postprocessor/BatchMultiClassNonMaxSuppression/PadOrClipBoxList/sub_3/x", "shape": [], "dtype": "int32"}, {"name": "StatefulPartitionedCall/Postprocessor/BatchMultiClassNonMaxSuppression/MultiClassNonMaxSuppression/Concatenate/concat_5", "shape": [1200], "dtype": "float32"}, {"name": "StatefulPartitionedCall/Postprocessor/BatchMultiClassNonMaxSuppression/PadOrClipBoxList/sub_17/x", "shape": [], "dtype": "int32"}, {"name": "StatefulPartitionedCall/Postprocessor/BatchMultiClassNonMaxSuppression/MultiClassNonMaxSuppression/mul_12/x", "shape": [], "dtype": "float32"}, {"name": "StatefulPartitionedCall/Postprocessor/BatchMultiClassNonMaxSuppression/MultiClassNonMaxSuppression/range", "shape": [100], "dtype": "int32"}, {"name": "StatefulPartitionedCall/Postprocessor/BatchMultiClassNonMaxSuppression/MultiClassNonMaxSuppression/mul", "shape": [100], "dtype": "float32"}, {"name": "StatefulPartitionedCall/Postprocessor/BatchMultiClassNonMaxSuppression/MultiClassNonMaxSuppression/Slice_1/begin", "shape": [2], "dtype": "int32"}, {"name": "StatefulPartitionedCall/Postprocessor/BatchMultiClassNonMaxSuppression/MultiClassNonMaxSuppression/Slice_2/begin", "shape": [2], "dtype": "int32"}, {"name": "StatefulPartitionedCall/Postprocessor/BatchMultiClassNonMaxSuppression/MultiClassNonMaxSuppression/Slice_3/begin", "shape": [2], "dtype": "int32"}, {"name": "StatefulPartitionedCall/Postprocessor/BatchMultiClassNonMaxSuppression/MultiClassNonMaxSuppression/Slice_4/begin", "shape": [2], "dtype": "int32"}, {"name": "StatefulPartitionedCall/Postprocessor/BatchMultiClassNonMaxSuppression/MultiClassNonMaxSuppression/Slice_5/begin", "shape": [2], "dtype": "int32"}, {"name": "StatefulPartitionedCall/Postprocessor/BatchMultiClassNonMaxSuppression/MultiClassNonMaxSuppression/Slice_6/begin", "shape": [2], "dtype": "int32"}, {"name": "StatefulPartitionedCall/Postprocessor/BatchMultiClassNonMaxSuppression/MultiClassNonMaxSuppression/Slice_7/begin", "shape": [2], "dtype": "int32"}, {"name": "StatefulPartitionedCall/Postprocessor/BatchMultiClassNonMaxSuppression/MultiClassNonMaxSuppression/Slice_8/begin", "shape": [2], "dtype": "int32"}, {"name": "StatefulPartitionedCall/Postprocessor/BatchMultiClassNonMaxSuppression/MultiClassNonMaxSuppression/Slice_9/begin", "shape": [2], "dtype": "int32"}, {"name": "StatefulPartitionedCall/Postprocessor/BatchMultiClassNonMaxSuppression/MultiClassNonMaxSuppression/Slice_10/begin", "shape": [2], "dtype": "int32"}, {"name": "StatefulPartitionedCall/Postprocessor/Decode/get_center_coordinates_and_sizes/add", "shape": [49104], "dtype": "float32"}, {"name": "StatefulPartitionedCall/Postprocessor/Decode/truediv", "shape": [49104], "dtype": "float32"}, {"name": "StatefulPartitionedCall/Postprocessor/Decode/mul_1", "shape": [49104], "dtype": "float32"}, {"name": "StatefulPartitionedCall/Postprocessor/Decode/get_center_coordinates_and_sizes/add_1", "shape": [49104], "dtype": "float32"}, {"name": "StatefulPartitionedCall/Postprocessor/Decode/truediv_1", "shape": [49104], "dtype": "float32"}, {"name": "ConstantFolding/StatefulPartitionedCall/Postprocessor/Decode/truediv_2_recip", "shape": [], "dtype": "float32"}, {"name": "StatefulPartitionedCall/WeightSharedConvolutionalBoxPredictor/BoxPredictionTower/conv2d_0/separable_conv2d/ReadVariableOp", "shape": [3, 3, 64, 1], "dtype": "float32"}, {"name": "StatefulPartitionedCall/WeightSharedConvolutionalBoxPredictor/BoxPredictionTower/conv2d_1/separable_conv2d/ReadVariableOp", "shape": [3, 3, 64, 1], "dtype": "float32"}, {"name": "StatefulPartitionedCall/WeightSharedConvolutionalBoxPredictor/BoxPredictionTower/conv2d_2/separable_conv2d/ReadVariableOp", "shape": [3, 3, 64, 1], "dtype": "float32"}, {"name": "StatefulPartitionedCall/WeightSharedConvolutionalBoxPredictor/WeightSharedConvolutionalBoxHead/BoxPredictor/separable_conv2d/ReadVariableOp", "shape": [3, 3, 64, 1], "dtype": "float32"}, {"name": "StatefulPartitionedCall/WeightSharedConvolutionalBoxPredictor/WeightSharedConvolutionalBoxHead/BoxPredictor/separable_conv2d/ReadVariableOp_1", "shape": [1, 1, 64, 36], "dtype": "float32"}, {"name": "StatefulPartitionedCall/WeightSharedConvolutionalBoxPredictor/WeightSharedConvolutionalBoxHead/BoxPredictor/BiasAdd/ReadVariableOp", "shape": [36], "dtype": "float32"}, {"name": "StatefulPartitionedCall/WeightSharedConvolutionalBoxPredictor/WeightSharedConvolutionalBoxHead/Reshape/shape", "shape": [3], "dtype": "int32"}, {"name": "StatefulPartitionedCall/Postprocessor/Reshape_1/shape", "shape": [2], "dtype": "int32"}, {"name": "StatefulPartitionedCall/Postprocessor/Decode/mul", "shape": [49104], "dtype": "float32"}, {"name": "StatefulPartitionedCall/Postprocessor/Decode/transpose/perm", "shape": [2], "dtype": "int32"}, {"name": "StatefulPartitionedCall/Postprocessor/stack", "shape": [3], "dtype": "int32"}, {"name": "StatefulPartitionedCall/Postprocessor/ExpandDims_1/dim", "shape": [], "dtype": "int32"}, {"name": "StatefulPartitionedCall/map/TensorArrayV2Stack/TensorListStack/element_shape", "shape": [3], "dtype": "int32"}, {"name": "StatefulPartitionedCall/EfficientDet-D0/model/stack_0/block_0/se_reshape/Reshape/shape", "shape": [4], "dtype": "int32"}, {"name": "StatefulPartitionedCall/EfficientDet-D0/model/stack_0/block_0/se_reduce_conv2d/Conv2D/ReadVariableOp", "shape": [1, 1, 32, 8], "dtype": "float32"}, {"name": "StatefulPartitionedCall/EfficientDet-D0/model/stack_0/block_0/se_reduce_conv2d/BiasAdd/ReadVariableOp", "shape": [8], "dtype": "float32"}, {"name": "StatefulPartitionedCall/EfficientDet-D0/model/stack_0/block_0/se_expand_conv2d/Conv2D/ReadVariableOp", "shape": [1, 1, 8, 32], "dtype": "float32"}, {"name": "StatefulPartitionedCall/EfficientDet-D0/model/stack_0/block_0/se_expand_conv2d/BiasAdd/ReadVariableOp", "shape": [32], "dtype": "float32"}, {"name": "StatefulPartitionedCall/EfficientDet-D0/model/stack_1/block_0/se_reshape/Reshape/shape", "shape": [4], "dtype": "int32"}, {"name": "StatefulPartitionedCall/EfficientDet-D0/model/stack_1/block_0/se_reduce_conv2d/Conv2D/ReadVariableOp", "shape": [1, 1, 96, 4], "dtype": "float32"}, {"name": "StatefulPartitionedCall/EfficientDet-D0/model/stack_1/block_0/se_reduce_conv2d/BiasAdd/ReadVariableOp", "shape": [4], "dtype": "float32"}, {"name": "StatefulPartitionedCall/EfficientDet-D0/model/stack_1/block_0/se_expand_conv2d/Conv2D/ReadVariableOp", "shape": [1, 1, 4, 96], "dtype": "float32"}, {"name": "StatefulPartitionedCall/EfficientDet-D0/model/stack_1/block_0/se_expand_conv2d/BiasAdd/ReadVariableOp", "shape": [96], "dtype": "float32"}, {"name": "StatefulPartitionedCall/EfficientDet-D0/model/stack_1/block_1/se_reduce_conv2d/Conv2D/ReadVariableOp", "shape": [1, 1, 144, 6], "dtype": "float32"}, {"name": "StatefulPartitionedCall/EfficientDet-D0/model/stack_1/block_1/se_reduce_conv2d/BiasAdd/ReadVariableOp", "shape": [6], "dtype": "float32"}, {"name": "StatefulPartitionedCall/EfficientDet-D0/model/stack_1/block_1/se_expand_conv2d/Conv2D/ReadVariableOp", "shape": [1, 1, 6, 144], "dtype": "float32"}, {"name": "StatefulPartitionedCall/EfficientDet-D0/model/stack_1/block_1/se_expand_conv2d/BiasAdd/ReadVariableOp", "shape": [144], "dtype": "float32"}, {"name": "StatefulPartitionedCall/EfficientDet-D0/model/stack_1/block_1/se_reshape/Reshape/shape", "shape": [4], "dtype": "int32"}, {"name": "StatefulPartitionedCall/EfficientDet-D0/model/stack_2/block_0/se_reduce_conv2d/Conv2D/ReadVariableOp", "shape": [1, 1, 144, 6], "dtype": "float32"}, {"name": "StatefulPartitionedCall/EfficientDet-D0/model/stack_2/block_0/se_reduce_conv2d/BiasAdd/ReadVariableOp", "shape": [6], "dtype": "float32"}, {"name": "StatefulPartitionedCall/EfficientDet-D0/model/stack_2/block_0/se_expand_conv2d/Conv2D/ReadVariableOp", "shape": [1, 1, 6, 144], "dtype": "float32"}, {"name": "StatefulPartitionedCall/EfficientDet-D0/model/stack_2/block_0/se_expand_conv2d/BiasAdd/ReadVariableOp", "shape": [144], "dtype": "float32"}, {"name": "StatefulPartitionedCall/EfficientDet-D0/model/stack_2/block_1/se_reduce_conv2d/Conv2D/ReadVariableOp", "shape": [1, 1, 240, 10], "dtype": "float32"}, {"name": "StatefulPartitionedCall/EfficientDet-D0/model/stack_2/block_1/se_reduce_conv2d/BiasAdd/ReadVariableOp", "shape": [10], "dtype": "float32"}, {"name": "StatefulPartitionedCall/EfficientDet-D0/model/stack_2/block_1/se_expand_conv2d/Conv2D/ReadVariableOp", "shape": [1, 1, 10, 240], "dtype": "float32"}, {"name": "StatefulPartitionedCall/EfficientDet-D0/model/stack_2/block_1/se_expand_conv2d/BiasAdd/ReadVariableOp", "shape": [240], "dtype": "float32"}, {"name": "StatefulPartitionedCall/EfficientDet-D0/model/stack_2/block_1/se_reshape/Reshape/shape", "shape": [4], "dtype": "int32"}, {"name": "StatefulPartitionedCall/EfficientDet-D0/model/stack_3/block_0/se_reduce_conv2d/Conv2D/ReadVariableOp", "shape": [1, 1, 240, 10], "dtype": "float32"}, {"name": "StatefulPartitionedCall/EfficientDet-D0/model/stack_3/block_0/se_reduce_conv2d/BiasAdd/ReadVariableOp", "shape": [10], "dtype": "float32"}, {"name": "StatefulPartitionedCall/EfficientDet-D0/model/stack_3/block_0/se_expand_conv2d/Conv2D/ReadVariableOp", "shape": [1, 1, 10, 240], "dtype": "float32"}, {"name": "StatefulPartitionedCall/EfficientDet-D0/model/stack_3/block_0/se_expand_conv2d/BiasAdd/ReadVariableOp", "shape": [240], "dtype": "float32"}, {"name": "StatefulPartitionedCall/EfficientDet-D0/model/stack_3/block_1/se_reduce_conv2d/Conv2D/ReadVariableOp", "shape": [1, 1, 480, 20], "dtype": "float32"}, {"name": "StatefulPartitionedCall/EfficientDet-D0/model/stack_3/block_1/se_reduce_conv2d/BiasAdd/ReadVariableOp", "shape": [20], "dtype": "float32"}, {"name": "StatefulPartitionedCall/EfficientDet-D0/model/stack_3/block_1/se_expand_conv2d/Conv2D/ReadVariableOp", "shape": [1, 1, 20, 480], "dtype": "float32"}, {"name": "StatefulPartitionedCall/EfficientDet-D0/model/stack_3/block_1/se_expand_conv2d/BiasAdd/ReadVariableOp", "shape": [480], "dtype": "float32"}, {"name": "StatefulPartitionedCall/EfficientDet-D0/model/stack_3/block_2/se_reduce_conv2d/Conv2D/ReadVariableOp", "shape": [1, 1, 480, 20], "dtype": "float32"}, {"name": "StatefulPartitionedCall/EfficientDet-D0/model/stack_3/block_2/se_reduce_conv2d/BiasAdd/ReadVariableOp", "shape": [20], "dtype": "float32"}, {"name": "StatefulPartitionedCall/EfficientDet-D0/model/stack_3/block_2/se_expand_conv2d/Conv2D/ReadVariableOp", "shape": [1, 1, 20, 480], "dtype": "float32"}, {"name": "StatefulPartitionedCall/EfficientDet-D0/model/stack_3/block_2/se_expand_conv2d/BiasAdd/ReadVariableOp", "shape": [480], "dtype": "float32"}, {"name": "StatefulPartitionedCall/EfficientDet-D0/model/stack_3/block_2/se_reshape/Reshape/shape", "shape": [4], "dtype": "int32"}, {"name": "StatefulPartitionedCall/EfficientDet-D0/model/stack_4/block_0/se_reduce_conv2d/Conv2D/ReadVariableOp", "shape": [1, 1, 480, 20], "dtype": "float32"}, {"name": "StatefulPartitionedCall/EfficientDet-D0/model/stack_4/block_0/se_reduce_conv2d/BiasAdd/ReadVariableOp", "shape": [20], "dtype": "float32"}, {"name": "StatefulPartitionedCall/EfficientDet-D0/model/stack_4/block_0/se_expand_conv2d/Conv2D/ReadVariableOp", "shape": [1, 1, 20, 480], "dtype": "float32"}, {"name": "StatefulPartitionedCall/EfficientDet-D0/model/stack_4/block_0/se_expand_conv2d/BiasAdd/ReadVariableOp", "shape": [480], "dtype": "float32"}, {"name": "StatefulPartitionedCall/EfficientDet-D0/model/stack_4/block_1/se_reduce_conv2d/Conv2D/ReadVariableOp", "shape": [1, 1, 672, 28], "dtype": "float32"}, {"name": "StatefulPartitionedCall/EfficientDet-D0/model/stack_4/block_1/se_reduce_conv2d/BiasAdd/ReadVariableOp", "shape": [28], "dtype": "float32"}, {"name": "StatefulPartitionedCall/EfficientDet-D0/model/stack_4/block_1/se_expand_conv2d/Conv2D/ReadVariableOp", "shape": [1, 1, 28, 672], "dtype": "float32"}, {"name": "StatefulPartitionedCall/EfficientDet-D0/model/stack_4/block_1/se_expand_conv2d/BiasAdd/ReadVariableOp", "shape": [672], "dtype": "float32"}, {"name": "StatefulPartitionedCall/EfficientDet-D0/model/stack_4/block_2/se_reduce_conv2d/Conv2D/ReadVariableOp", "shape": [1, 1, 672, 28], "dtype": "float32"}, {"name": "StatefulPartitionedCall/EfficientDet-D0/model/stack_4/block_2/se_reduce_conv2d/BiasAdd/ReadVariableOp", "shape": [28], "dtype": "float32"}, {"name": "StatefulPartitionedCall/EfficientDet-D0/model/stack_4/block_2/se_expand_conv2d/Conv2D/ReadVariableOp", "shape": [1, 1, 28, 672], "dtype": "float32"}, {"name": "StatefulPartitionedCall/EfficientDet-D0/model/stack_4/block_2/se_expand_conv2d/BiasAdd/ReadVariableOp", "shape": [672], "dtype": "float32"}, {"name": "StatefulPartitionedCall/EfficientDet-D0/model/stack_4/block_2/se_reshape/Reshape/shape", "shape": [4], "dtype": "int32"}, {"name": "StatefulPartitionedCall/EfficientDet-D0/model/stack_5/block_0/se_reduce_conv2d/Conv2D/ReadVariableOp", "shape": [1, 1, 672, 28], "dtype": "float32"}, {"name": "StatefulPartitionedCall/EfficientDet-D0/model/stack_5/block_0/se_reduce_conv2d/BiasAdd/ReadVariableOp", "shape": [28], "dtype": "float32"}, {"name": "StatefulPartitionedCall/EfficientDet-D0/model/stack_5/block_0/se_expand_conv2d/Conv2D/ReadVariableOp", "shape": [1, 1, 28, 672], "dtype": "float32"}, {"name": "StatefulPartitionedCall/EfficientDet-D0/model/stack_5/block_0/se_expand_conv2d/BiasAdd/ReadVariableOp", "shape": [672], "dtype": "float32"}, {"name": "StatefulPartitionedCall/EfficientDet-D0/model/stack_5/block_1/se_reduce_conv2d/Conv2D/ReadVariableOp", "shape": [1, 1, 1152, 48], "dtype": "float32"}, {"name": "StatefulPartitionedCall/EfficientDet-D0/model/stack_5/block_1/se_reduce_conv2d/BiasAdd/ReadVariableOp", "shape": [48], "dtype": "float32"}, {"name": "StatefulPartitionedCall/EfficientDet-D0/model/stack_5/block_1/se_expand_conv2d/Conv2D/ReadVariableOp", "shape": [1, 1, 48, 1152], "dtype": "float32"}, {"name": "StatefulPartitionedCall/EfficientDet-D0/model/stack_5/block_1/se_expand_conv2d/BiasAdd/ReadVariableOp", "shape": [1152], "dtype": "float32"}, {"name": "StatefulPartitionedCall/EfficientDet-D0/model/stack_5/block_2/se_reduce_conv2d/Conv2D/ReadVariableOp", "shape": [1, 1, 1152, 48], "dtype": "float32"}, {"name": "StatefulPartitionedCall/EfficientDet-D0/model/stack_5/block_2/se_reduce_conv2d/BiasAdd/ReadVariableOp", "shape": [48], "dtype": "float32"}, {"name": "StatefulPartitionedCall/EfficientDet-D0/model/stack_5/block_2/se_expand_conv2d/Conv2D/ReadVariableOp", "shape": [1, 1, 48, 1152], "dtype": "float32"}, {"name": "StatefulPartitionedCall/EfficientDet-D0/model/stack_5/block_2/se_expand_conv2d/BiasAdd/ReadVariableOp", "shape": [1152], "dtype": "float32"}, {"name": "StatefulPartitionedCall/EfficientDet-D0/model/stack_5/block_3/se_reduce_conv2d/Conv2D/ReadVariableOp", "shape": [1, 1, 1152, 48], "dtype": "float32"}, {"name": "StatefulPartitionedCall/EfficientDet-D0/model/stack_5/block_3/se_reduce_conv2d/BiasAdd/ReadVariableOp", "shape": [48], "dtype": "float32"}, {"name": "StatefulPartitionedCall/EfficientDet-D0/model/stack_5/block_3/se_expand_conv2d/Conv2D/ReadVariableOp", "shape": [1, 1, 48, 1152], "dtype": "float32"}, {"name": "StatefulPartitionedCall/EfficientDet-D0/model/stack_5/block_3/se_expand_conv2d/BiasAdd/ReadVariableOp", "shape": [1152], "dtype": "float32"}, {"name": "StatefulPartitionedCall/EfficientDet-D0/model/stack_5/block_3/se_squeeze/Mean/reduction_indices", "shape": [2], "dtype": "int32"}, {"name": "StatefulPartitionedCall/EfficientDet-D0/model/stack_5/block_3/se_reshape/Reshape/shape", "shape": [4], "dtype": "int32"}, {"name": "StatefulPartitionedCall/EfficientDet-D0/model/stack_6/block_0/se_reduce_conv2d/Conv2D/ReadVariableOp", "shape": [1, 1, 1152, 48], "dtype": "float32"}, {"name": "StatefulPartitionedCall/EfficientDet-D0/model/stack_6/block_0/se_reduce_conv2d/BiasAdd/ReadVariableOp", "shape": [48], "dtype": "float32"}, {"name": "StatefulPartitionedCall/EfficientDet-D0/model/stack_6/block_0/se_expand_conv2d/Conv2D/ReadVariableOp", "shape": [1, 1, 48, 1152], "dtype": "float32"}, {"name": "StatefulPartitionedCall/EfficientDet-D0/model/stack_6/block_0/se_expand_conv2d/BiasAdd/ReadVariableOp", "shape": [1152], "dtype": "float32"}, {"name": "StatefulPartitionedCall/EfficientDet-D0/bifpn/node_02/1_dn_lvl_6/combine/truediv", "shape": [2, 1], "dtype": "float32"}, {"name": "StatefulPartitionedCall/EfficientDet-D0/bifpn/node_02/1_dn_lvl_6/post_combine/separable_conv/separable_conv2d/ReadVariableOp", "shape": [3, 3, 64, 1], "dtype": "float32"}, {"name": "StatefulPartitionedCall/EfficientDet-D0/bifpn/node_03/1_dn_lvl_5/combine/truediv", "shape": [2, 1], "dtype": "float32"}, {"name": "StatefulPartitionedCall/EfficientDet-D0/bifpn/node_03/1_dn_lvl_5/post_combine/separable_conv/separable_conv2d/ReadVariableOp", "shape": [3, 3, 64, 1], "dtype": "float32"}, {"name": "StatefulPartitionedCall/EfficientDet-D0/bifpn/node_04/1_dn_lvl_4/combine/truediv", "shape": [2, 1], "dtype": "float32"}, {"name": "StatefulPartitionedCall/EfficientDet-D0/bifpn/node_04/1_dn_lvl_4/post_combine/separable_conv/separable_conv2d/ReadVariableOp", "shape": [3, 3, 64, 1], "dtype": "float32"}, {"name": "StatefulPartitionedCall/EfficientDet-D0/bifpn/node_05/1_dn_lvl_3/combine/truediv", "shape": [2, 1], "dtype": "float32"}, {"name": "StatefulPartitionedCall/EfficientDet-D0/bifpn/node_05/1_dn_lvl_3/post_combine/separable_conv/separable_conv2d/ReadVariableOp", "shape": [3, 3, 64, 1], "dtype": "float32"}, {"name": "StatefulPartitionedCall/EfficientDet-D0/bifpn/node_06/1_up_lvl_4/combine/truediv", "shape": [3, 1], "dtype": "float32"}, {"name": "StatefulPartitionedCall/EfficientDet-D0/bifpn/node_06/1_up_lvl_4/post_combine/separable_conv/separable_conv2d/ReadVariableOp", "shape": [3, 3, 64, 1], "dtype": "float32"}, {"name": "StatefulPartitionedCall/EfficientDet-D0/bifpn/node_07/1_up_lvl_5/combine/truediv", "shape": [3, 1], "dtype": "float32"}, {"name": "StatefulPartitionedCall/EfficientDet-D0/bifpn/node_07/1_up_lvl_5/post_combine/separable_conv/separable_conv2d/ReadVariableOp", "shape": [3, 3, 64, 1], "dtype": "float32"}, {"name": "StatefulPartitionedCall/EfficientDet-D0/bifpn/node_08/1_up_lvl_6/combine/truediv", "shape": [3, 1], "dtype": "float32"}, {"name": "StatefulPartitionedCall/EfficientDet-D0/bifpn/node_08/1_up_lvl_6/post_combine/separable_conv/separable_conv2d/ReadVariableOp", "shape": [3, 3, 64, 1], "dtype": "float32"}, {"name": "StatefulPartitionedCall/EfficientDet-D0/bifpn/node_09/1_up_lvl_7/combine/truediv", "shape": [2, 1], "dtype": "float32"}, {"name": "StatefulPartitionedCall/EfficientDet-D0/bifpn/node_09/1_up_lvl_7/post_combine/separable_conv/separable_conv2d/ReadVariableOp", "shape": [3, 3, 64, 1], "dtype": "float32"}, {"name": "StatefulPartitionedCall/EfficientDet-D0/bifpn/node_10/2_dn_lvl_6/combine/truediv", "shape": [2, 1], "dtype": "float32"}, {"name": "StatefulPartitionedCall/EfficientDet-D0/bifpn/node_10/2_dn_lvl_6/post_combine/separable_conv/separable_conv2d/ReadVariableOp", "shape": [3, 3, 64, 1], "dtype": "float32"}, {"name": "StatefulPartitionedCall/EfficientDet-D0/bifpn/node_11/2_dn_lvl_5/combine/truediv", "shape": [2, 1], "dtype": "float32"}, {"name": "StatefulPartitionedCall/EfficientDet-D0/bifpn/node_11/2_dn_lvl_5/post_combine/separable_conv/separable_conv2d/ReadVariableOp", "shape": [3, 3, 64, 1], "dtype": "float32"}, {"name": "StatefulPartitionedCall/EfficientDet-D0/bifpn/node_12/2_dn_lvl_4/combine/truediv", "shape": [2, 1], "dtype": "float32"}, {"name": "StatefulPartitionedCall/EfficientDet-D0/bifpn/node_12/2_dn_lvl_4/post_combine/separable_conv/separable_conv2d/ReadVariableOp", "shape": [3, 3, 64, 1], "dtype": "float32"}, {"name": "StatefulPartitionedCall/EfficientDet-D0/bifpn/node_13/2_dn_lvl_3/combine/truediv", "shape": [2, 1], "dtype": "float32"}, {"name": "StatefulPartitionedCall/EfficientDet-D0/bifpn/node_13/2_dn_lvl_3/post_combine/separable_conv/separable_conv2d/ReadVariableOp", "shape": [3, 3, 64, 1], "dtype": "float32"}, {"name": "StatefulPartitionedCall/EfficientDet-D0/bifpn/node_14/2_up_lvl_4/combine/truediv", "shape": [3, 1], "dtype": "float32"}, {"name": "StatefulPartitionedCall/EfficientDet-D0/bifpn/node_14/2_up_lvl_4/post_combine/separable_conv/separable_conv2d/ReadVariableOp", "shape": [3, 3, 64, 1], "dtype": "float32"}, {"name": "StatefulPartitionedCall/EfficientDet-D0/bifpn/node_15/2_up_lvl_5/combine/truediv", "shape": [3, 1], "dtype": "float32"}, {"name": "StatefulPartitionedCall/EfficientDet-D0/bifpn/node_15/2_up_lvl_5/post_combine/separable_conv/separable_conv2d/ReadVariableOp", "shape": [3, 3, 64, 1], "dtype": "float32"}, {"name": "StatefulPartitionedCall/EfficientDet-D0/bifpn/node_16/2_up_lvl_6/combine/truediv", "shape": [3, 1], "dtype": "float32"}, {"name": "StatefulPartitionedCall/EfficientDet-D0/bifpn/node_16/2_up_lvl_6/post_combine/separable_conv/separable_conv2d/ReadVariableOp", "shape": [3, 3, 64, 1], "dtype": "float32"}, {"name": "StatefulPartitionedCall/EfficientDet-D0/bifpn/node_17/2_up_lvl_7/combine/truediv", "shape": [2, 1], "dtype": "float32"}, {"name": "StatefulPartitionedCall/EfficientDet-D0/bifpn/node_17/2_up_lvl_7/post_combine/separable_conv/separable_conv2d/ReadVariableOp", "shape": [3, 3, 64, 1], "dtype": "float32"}, {"name": "StatefulPartitionedCall/EfficientDet-D0/bifpn/node_02/1_dn_lvl_6/input_0_up_lvl_7/nearest_neighbor_upsampling_x2/nearest_neighbor_upsampling/Reshape/shape", "shape": [4], "dtype": "int32"}, {"name": "StatefulPartitionedCall/EfficientDet-D0/bifpn/node_18/3_dn_lvl_6/combine/truediv", "shape": [2, 1], "dtype": "float32"}, {"name": "StatefulPartitionedCall/EfficientDet-D0/bifpn/node_18/3_dn_lvl_6/post_combine/separable_conv/separable_conv2d/ReadVariableOp", "shape": [3, 3, 64, 1], "dtype": "float32"}, {"name": "StatefulPartitionedCall/EfficientDet-D0/bifpn/node_03/1_dn_lvl_5/input_1_dn_lvl_6/nearest_neighbor_upsampling_x2/nearest_neighbor_upsampling/Reshape/shape", "shape": [4], "dtype": "int32"}, {"name": "StatefulPartitionedCall/EfficientDet-D0/bifpn/node_19/3_dn_lvl_5/combine/truediv", "shape": [2, 1], "dtype": "float32"}, {"name": "StatefulPartitionedCall/EfficientDet-D0/bifpn/node_19/3_dn_lvl_5/post_combine/separable_conv/separable_conv2d/ReadVariableOp", "shape": [3, 3, 64, 1], "dtype": "float32"}, {"name": "StatefulPartitionedCall/EfficientDet-D0/bifpn/node_04/1_dn_lvl_4/input_1_dn_lvl_5/nearest_neighbor_upsampling_x2/nearest_neighbor_upsampling/Reshape/shape", "shape": [4], "dtype": "int32"}, {"name": "StatefulPartitionedCall/EfficientDet-D0/bifpn/node_20/3_dn_lvl_4/combine/truediv", "shape": [2, 1], "dtype": "float32"}, {"name": "StatefulPartitionedCall/EfficientDet-D0/bifpn/node_20/3_dn_lvl_4/post_combine/separable_conv/separable_conv2d/ReadVariableOp", "shape": [3, 3, 64, 1], "dtype": "float32"}, {"name": "StatefulPartitionedCall/EfficientDet-D0/bifpn/node_05/1_dn_lvl_3/input_1_dn_lvl_4/nearest_neighbor_upsampling_x2/nearest_neighbor_upsampling/Reshape/shape", "shape": [4], "dtype": "int32"}, {"name": "StatefulPartitionedCall/EfficientDet-D0/bifpn/node_21/3_dn_lvl_3/combine/truediv", "shape": [2, 1], "dtype": "float32"}, {"name": "StatefulPartitionedCall/EfficientDet-D0/bifpn/node_21/3_dn_lvl_3/post_combine/separable_conv/separable_conv2d/ReadVariableOp", "shape": [3, 3, 64, 1], "dtype": "float32"}, {"name": "StatefulPartitionedCall/EfficientDet-D0/bifpn/node_22/3_up_lvl_4/combine/truediv", "shape": [3, 1], "dtype": "float32"}, {"name": "StatefulPartitionedCall/EfficientDet-D0/bifpn/node_22/3_up_lvl_4/post_combine/separable_conv/separable_conv2d/ReadVariableOp", "shape": [3, 3, 64, 1], "dtype": "float32"}, {"name": "StatefulPartitionedCall/EfficientDet-D0/bifpn/node_23/3_up_lvl_5/combine/truediv", "shape": [3, 1], "dtype": "float32"}, {"name": "StatefulPartitionedCall/EfficientDet-D0/bifpn/node_23/3_up_lvl_5/post_combine/separable_conv/separable_conv2d/ReadVariableOp", "shape": [3, 3, 64, 1], "dtype": "float32"}, {"name": "StatefulPartitionedCall/EfficientDet-D0/bifpn/node_24/3_up_lvl_6/combine/truediv", "shape": [3, 1], "dtype": "float32"}, {"name": "StatefulPartitionedCall/EfficientDet-D0/bifpn/node_24/3_up_lvl_6/post_combine/separable_conv/separable_conv2d/ReadVariableOp", "shape": [3, 3, 64, 1], "dtype": "float32"}, {"name": "StatefulPartitionedCall/EfficientDet-D0/bifpn/node_25/3_up_lvl_7/combine/truediv", "shape": [2, 1], "dtype": "float32"}, {"name": "StatefulPartitionedCall/EfficientDet-D0/bifpn/node_25/3_up_lvl_7/post_combine/separable_conv/separable_conv2d/ReadVariableOp", "shape": [3, 3, 64, 1], "dtype": "float32"}, {"name": "StatefulPartitionedCall/WeightSharedConvolutionalBoxPredictor/ClassPredictionTower/conv2d_0/separable_conv2d/ReadVariableOp", "shape": [3, 3, 64, 1], "dtype": "float32"}, {"name": "StatefulPartitionedCall/WeightSharedConvolutionalBoxPredictor/ClassPredictionTower/conv2d_1/separable_conv2d/ReadVariableOp", "shape": [3, 3, 64, 1], "dtype": "float32"}, {"name": "StatefulPartitionedCall/WeightSharedConvolutionalBoxPredictor/ClassPredictionTower/conv2d_2/separable_conv2d/ReadVariableOp", "shape": [3, 3, 64, 1], "dtype": "float32"}, {"name": "StatefulPartitionedCall/WeightSharedConvolutionalBoxPredictor/WeightSharedConvolutionalClassHead/ClassPredictor/separable_conv2d/ReadVariableOp", "shape": [3, 3, 64, 1], "dtype": "float32"}, {"name": "StatefulPartitionedCall/WeightSharedConvolutionalBoxPredictor/WeightSharedConvolutionalClassHead/ClassPredictor/separable_conv2d/ReadVariableOp_1", "shape": [1, 1, 64, 108], "dtype": "float32"}, {"name": "StatefulPartitionedCall/WeightSharedConvolutionalBoxPredictor/WeightSharedConvolutionalClassHead/ClassPredictor/BiasAdd/ReadVariableOp", "shape": [108], "dtype": "float32"}, {"name": "StatefulPartitionedCall/WeightSharedConvolutionalBoxPredictor/WeightSharedConvolutionalClassHead/Reshape_1/shape", "shape": [3], "dtype": "int32"}, {"name": "StatefulPartitionedCall/Postprocessor/BatchMultiClassNonMaxSuppression/Slice_4/begin", "shape": [2], "dtype": "int32"}, {"name": "StatefulPartitionedCall/Postprocessor/BatchMultiClassNonMaxSuppression/MultiClassNonMaxSuppression/Slice_11/begin", "shape": [2], "dtype": "int32"}, {"name": "StatefulPartitionedCall/Postprocessor/BatchMultiClassNonMaxSuppression/MultiClassNonMaxSuppression/stack", "shape": [2], "dtype": "int32"}, {"name": "StatefulPartitionedCall/Postprocessor/BatchMultiClassNonMaxSuppression/PadOrClipBoxList/sub_13/x", "shape": [], "dtype": "int32"}, {"name": "StatefulPartitionedCall/Postprocessor/BatchMultiClassNonMaxSuppression/MultiClassNonMaxSuppression/non_max_suppression_with_scores/iou_threshold", "shape": [], "dtype": "float32"}, {"name": "StatefulPartitionedCall/Postprocessor/BatchMultiClassNonMaxSuppression/MultiClassNonMaxSuppression/non_max_suppression_with_scores/score_threshold", "shape": [], "dtype": "float32"}, {"name": "StatefulPartitionedCall/Postprocessor/BatchMultiClassNonMaxSuppression/MultiClassNonMaxSuppression/ChangeCoordinateFrame/strided_slice_2/stack_1", "shape": [1], "dtype": "int32"}, {"name": "StatefulPartitionedCall/Postprocessor/zeros_like", "shape": [1], "dtype": "float32"}, {"name": "ConstantFolding/StatefulPartitionedCall/Postprocessor/truediv_recip", "shape": [], "dtype": "float32"}, {"name": "StatefulPartitionedCall/Postprocessor/BatchMultiClassNonMaxSuppression/PadOrClipBoxList/Select_6/e", "shape": [], "dtype": "int32"}, {"name": "StatefulPartitionedCall/map/TensorArrayUnstack/TensorListFromTensor/element_shape", "shape": [3], "dtype": "int32"}, {"name": "StatefulPartitionedCall/Postprocessor/BatchMultiClassNonMaxSuppression/MultiClassNonMaxSuppression/ChangeCoordinateFrame/strided_slice/stack_1", "shape": [1], "dtype": "int32"}, {"name": "StatefulPartitionedCall/Postprocessor/BatchMultiClassNonMaxSuppression/PadOrClipBoxList/zeros_1/shape_as_tensor", "shape": [1], "dtype": "int32"}, {"name": "StatefulPartitionedCall/Postprocessor/BatchMultiClassNonMaxSuppression/MultiClassNonMaxSuppression/range_12/delta", "shape": [], "dtype": "int32"}, {"name": "StatefulPartitionedCall/Postprocessor/BatchMultiClassNonMaxSuppression/MultiClassNonMaxSuppression/GreaterEqual/y", "shape": [], "dtype": "float32"}, {"name": "StatefulPartitionedCall/Postprocessor/BatchMultiClassNonMaxSuppression/PadOrClipBoxList/zeros_7/Const", "shape": [], "dtype": "int32"}, {"name": "StatefulPartitionedCall/Postprocessor/BatchMultiClassNonMaxSuppression/PadOrClipBoxList/strided_slice_12/stack", "shape": [1], "dtype": "int32"}, {"name": "StatefulPartitionedCall/Postprocessor/BatchMultiClassNonMaxSuppression/PadOrClipBoxList/zeros_7/shape_as_tensor", "shape": [1], "dtype": "int32"}, {"name": "StatefulPartitionedCall/Postprocessor/BatchMultiClassNonMaxSuppression/MultiClassNonMaxSuppression/ones_12/Reshape/shape", "shape": [1], "dtype": "int32"}, {"name": "StatefulPartitionedCall/add/y", "shape": [], "dtype": "float32"}, {"name": "StatefulPartitionedCall/Postprocessor/BatchMultiClassNonMaxSuppression/PadOrClipBoxList/zeros_1", "shape": [2], "dtype": "int32"}, {"name": "StatefulPartitionedCall/Postprocessor/BatchMultiClassNonMaxSuppression/PadOrClipBoxList/zeros_7", "shape": [1], "dtype": "int32"}, {"name": "ConstantFolding/StatefulPartitionedCall/Postprocessor/BatchMultiClassNonMaxSuppression/stack_12_const_axis", "shape": [], "dtype": "int32"}, {"name": "ConstantFolding/StatefulPartitionedCall/Postprocessor/BatchMultiClassNonMaxSuppression/PadOrClipBoxList/Slice_3/size_const_axis", "shape": [], "dtype": "int32"}, {"name": "ConstantFolding/StatefulPartitionedCall/Postprocessor/BatchMultiClassNonMaxSuppression/PadOrClipBoxList/Slice_5/size_const_axis", "shape": [], "dtype": "int32"}, {"name": "ConstantFolding/StatefulPartitionedCall/Postprocessor/BatchMultiClassNonMaxSuppression/PadOrClipBoxList/Slice_1/size_const_axis", "shape": [], "dtype": "int32"}, {"name": "ConstantFolding/StatefulPartitionedCall/Postprocessor/BatchMultiClassNonMaxSuppression/PadOrClipBoxList/stack_3/values_1_const_axis", "shape": [], "dtype": "int32"}, {"name": "ConstantFolding/StatefulPartitionedCall/Postprocessor/BatchMultiClassNonMaxSuppression/PadOrClipBoxList/stack_5/values_1_const_axis", "shape": [], "dtype": "int32"}, {"name": "ConstantFolding/StatefulPartitionedCall/Postprocessor/BatchMultiClassNonMaxSuppression/PadOrClipBoxList/stack_1/values_1_const_axis", "shape": [], "dtype": "int32"}, {"name": "ConstantFolding/StatefulPartitionedCall/Postprocessor/BatchMultiClassNonMaxSuppression/stack_6_const_axis", "shape": [], "dtype": "int32"}, {"name": "ConstantFolding/StatefulPartitionedCall/Postprocessor/BatchMultiClassNonMaxSuppression/stack_11_const_axis", "shape": [], "dtype": "int32"}, {"name": "ConstantFolding/StatefulPartitionedCall/Postprocessor/BatchMultiClassNonMaxSuppression/stack_10_const_axis", "shape": [], "dtype": "int32"}, {"name": "ConstantFolding/StatefulPartitionedCall/Postprocessor/BatchMultiClassNonMaxSuppression/stack_8_const_axis", "shape": [], "dtype": "int32"}, {"name": "ConstantFolding/StatefulPartitionedCall/Postprocessor/BatchMultiClassNonMaxSuppression/stack_7_const_axis", "shape": [], "dtype": "int32"}, {"name": "__inference_map_while_Preprocessor_ResizeToRange_cond_true_13392_28437_frozen/map/while/Preprocessor/ResizeToRange/cond/resize/Cast", "shape": [], "dtype": "float32"}, {"name": "__inference_map_while_Preprocessor_ResizeToRange_cond_true_13392_28437_frozen/map/while/Preprocessor/ResizeToRange/cond/resize/ExpandDims/dim", "shape": [], "dtype": "int32"}, {"name": "__inference_map_while_Preprocessor_ResizeToRange_cond_false_13393_28507_frozen/map/while/Preprocessor/ResizeToRange/cond/resize/Cast", "shape": [], "dtype": "float32"}, {"name": "__inference_map_while_Preprocessor_ResizeToRange_cond_false_13393_28507_frozen/map/while/Preprocessor/ResizeToRange/cond/resize/ExpandDims/dim", "shape": [], "dtype": "int32"}, {"name": "__inference_map_while_cond_13345_53617_frozen/map/while/Less/y", "shape": [], "dtype": "int32"}, {"name": "__inference_map_while_body_13346_28622_frozen/map/while/Preprocessor/ResizeToRange/Pad/paddings/0/0", "shape": [], "dtype": "int32"}, {"name": "__inference_map_while_body_13346_28622_frozen/map/while/Preprocessor/ResizeToRange/sub/x", "shape": [], "dtype": "int32"}, {"name": "__inference_map_while_body_13346_28622_frozen/map/while/Preprocessor/ResizeToRange/strided_slice_3/stack_1", "shape": [1], "dtype": "int32"}, {"name": "__inference_map_while_body_13346_28622_frozen/ConstantFolding/map/while/Preprocessor/truediv_1_recip", "shape": [1, 1, 3], "dtype": "float32"}, {"name": "__inference_map_while_body_13346_28622_frozen/ConstantFolding/map/while/Preprocessor/truediv_recip", "shape": [], "dtype": "float32"}, {"name": "__inference_map_while_body_13346_28622_frozen/map/while/TensorArrayV2Read/TensorListGetItem/element_shape", "shape": [3], "dtype": "int32"}, {"name": "__inference_map_while_body_13346_28622_frozen/map/while/strided_slice/stack", "shape": [4], "dtype": "int32"}, {"name": "__inference_map_while_body_13346_28622_frozen/map/while/strided_slice/stack_2", "shape": [4], "dtype": "int32"}, {"name": "__inference_map_while_body_13346_28622_frozen/map/while/Preprocessor/sub/y", "shape": [1, 1, 3], "dtype": "float32"}, {"name": "__inference_map_while_body_13346_28622_frozen/map/while/Preprocessor/ResizeToRange/strided_slice_2/stack", "shape": [1], "dtype": "int32"}, {"name": "__inference_map_while_body_13346_28622_frozen/map/while/Preprocessor/ResizeToRange/strided_slice_2/stack_1", "shape": [1], "dtype": "int32"}, {"name": "__inference_map_while_body_13346_28622_frozen/map/while/add/y", "shape": [], "dtype": "int32"}, {"name": "__inference_map_while_body_13346_28622_frozen/ConstantFolding/map/while/Preprocessor/stack_1_const_axis", "shape": [], "dtype": "int32"}, {"name": "__inference_map_while_body_13346_28622_frozen/ConstantFolding/map/while/Preprocessor/stack_const_axis", "shape": [], "dtype": "int32"}]}]}